py/models/gmd_LSTM.pt (torch_old, 187059 bytes, 5 tensors)

lstm.weight_ih_l0 f4 [400, 14]
00000000: 1550 8ebc 5c97 c2bb ba25 8ebd cd6d 17bd
00000010: 31a0 b6bd 54df 8f3c c350 c9bd bd45 8ebd
00000020: 7990 15be f037 1ebe cd00 66bc 78e1 0ebd
00000030: 22d1 323d 9766 833d 0101 aabd 8d7d a63d
00000040: c751 0fbd cb55 0b3d 1049 57bd 593b 823d
00000050: f68b ad3c 7efb 1cbd 9609 89bc 4a4c a73b
00000060: d4d9 053e 33f1 b03d f0ee d63c e00c 9fbb
00000070: 72a8 843d 5b19 7bbd 479b 163d 8c64 03bd
00000080: b354 6c3d e3f7 11bd d275 9b3b 7650 0a3d
00000090: 11e3 643d f75c 85bc 7898 ba3d 8fcf a9bd
000000a0: d3b2 b1bc bb38 ccbd ee8c cabc ba7f d5bd
000000b0: e57f 32be 13c7 c13b 62fd fc3b 7239 98bd
000000c0: 9b95 113e 2d64 9e3d 99ea 3b3c e944 163c
000000d0: 74f1 eabd 5e1a b1bd 8aba 86bd f80d a5bc
000000e0: c91e 90bd 880f f5bc 40b5 e0bb c3f5 2dbc
000000f0: ffd7 2eba 20b3 6a3d 98de 033d b506 95bd
00000100: d271 fbbc f49b 833c ed57 cc3d 4456 a4bc
00000110: 3336 0ebd 18b6 83bc c3c4 e3bd 15c1 36bd
00000120: e95f 89bd c1ca cf3d 38d7 2c3d 49cf 36bd
00000130: 73dd 8ebd 1b3e 0dbd 061b 5c3d e678 d7bd
00000140: 2563 3dbd e4e8 f13c c50c 93bd 986f 36bc
00000150: 1257 aabd 4c87 023d 8171 e83c 55be 9bbd
00000160: be71 96bd a748 9d3c db7b 11bb 7448 6a3d
00000170: 393e 30be 81e7 c2bd eac9 443c 41cb debd
00000180: da71 0cbd a21f 343d 8929 d03c 8f63 bebc
00000190: 047b 233c d831 453d c9bf 5abc 11bd 323b
000001a0: 3ecc a53d 4dca 943d be3d 8e3d d389 80bc
000001b0: 4dc7 07be ea7a 14be 0f8b 38bd d027 1dbd
000001c0: 6306 b03c a3ea 933c 3759 1b3e e510 ce3d
000001d0: 7684 193c 2a69 12bd f4ea 803d 81a5 0d3d
000001e0: b216 32bd 4c64 853c acc8 e53d 6160 6ebd
000001f0: b49a afbb f4a7 b13c 5675 b9bd 1dcd a8bd
00000200: 9c96 8b3d c28e 39bd 8f64 7d3d bcd0 0c3c
00000210: 98f7 ee3c 44f7 83bd c0b0 c3bc 8eb8 4a3d
00000220: 49d7 293d 3052 05bd 2ba3 233c 71cc 9c3d
00000230: cc1f d5bc c224 51be d65b 32bc f573 373d
00000240: e4ff f33c 20da 05be 9a8c 31bd a195 7b3d
00000250: 994a 653d 3da6 abbd 480f d7bc cbf7 963d
00000260: c579 2c3d 17d4 8a3d 6fd3 9dbd 71a0 f03b
00000270: 0610 84bc bd44 66bc a3b8 b73d 4a56 593d
00000280: 7422 693d bd1c 373d 5fd5 383d ccea b7bd
00000290: e447 1dbe 366f fdbd 2207 c4bd aa98 84bd
000002a0: f80d ba3c 7ca6 fa3b ab50 83bd 55da c5bd
000002b0: e805 c93d 4de1 993d 90c4 423d a44a cd3d
000002c0: cf72 55bd 2223 bcbd a6b0 c1bd b151 22bd
000002d0: 975c f4bd d120 a23d 46a0 7bbd afca 8a3e
000002e0: 98be b3be d6f1 c8bd 6734 67bc 8e7b 073e
000002f0: 4ecb 133e e9bd a6bc c5b9 8d3c c6e2 38be
00000300: 5faf 7dbd 8caa b8bd 749c 96bd bf0f 8f3d
00000310: 40e8 fabc 0928 a7bd c296 9abd c3b9 9a3d
00000320: f3b5 aebc d104 d23d b699 2ebd a195 bf3d
00000330: 7f61 113d 0031 f23d e2b9 b93c 346e ddba
00000340: 7194 bbbd 806e 9c3a 1bd7 b23d 5450 a4bc
00000350: e3f1 f13b 01fa 673d 67c2 a7bd 0892 b9bd
00000360: 2504 43bd eb5c 443c ccdf d538 6e42 c03d
00000370: 443a abbb 683d 53bd c9b4 cc3b 59b5 8a3d
00000380: a54d 82be 8f22 19be bef9 033d fb6f dd3c
00000390: 1b71 35be de62 7dbe a186 16be bd8c 31be
000003a0: 4526 4abe 5c3b 283d 18e1 b2bd 93bf 80be
000003b0: 76c0 18be 584a 9fbc 451a ac3d af8c f5bd
000003c0: aa13 c6bd 1d72 64bd b60e 173b 3acd 59bd
000003d0: 6b49 573d d4e7 e7bc 1883 72bc 28e8 15bc
000003e0: 60ec a2bd 1b2e 2cbe c3e8 06bc ed0a 7bbd
000003f0: 93ef fb3c 1daf b13d 2c3e 39bd d72d 86bc
-0.01737217 -0.0059384536 -0.069407895 -0.03696995 -0.08917273 0.017562546 -0.09829857 -0.06946895
-0.14605893 -0.15451026 -0.014038277 -0.034882993 0.043656476 0.06416052 -0.08300973 0.08129416
-0.0349901 0.034017365 -0.052559912 0.06358976 0.021184903 -0.03832578 -0.016728204 0.00510553
0.13071376 0.08639755 0.026236981 -0.0048538297 0.06477441 -0.061303478 0.036769178 -0.03207831
0.057697963 -0.035636794 0.00474427 0.03376814 0.05588061 -0.01627968 0.09111112 -0.08291542
-0.021691715 -0.09971758 -0.024725404 -0.104247525 -0.174316 0.005913624 0.0077206353 -0.07432832
0.14217226 0.07733951 0.011469507 0.009171703 -0.11471835 -0.08647607 -0.06578548 -0.020148262
-0.07037122 -0.029914632 -0.006857544 -0.010617676 -0.0006669759 0.057299733 0.032194704 -0.0727667
-0.030693922 0.016065575 0.09977708 -0.020060666 -0.034719657 -0.01607804 -0.11121514 -0.04461773
-0.067077465 0.10146094 0.042197436 -0.044631276 -0.06975832 -0.034483057 0.05373671 -0.105211064
-0.04623713 0.029529996 -0.0718017 -0.011135004 -0.083173886 0.03186731 0.028374435 -0.07604662
-0.07345913 0.019199682 -0.0022199068 0.057198003 -0.17211236 -0.09516812 0.012011031 -0.10878611
-0.034288265 0.04397548 0.02541043 -0.023240833 0.00997806 0.048143238 -0.013351389 0.0027273337
0.08095597 0.07265148 0.0694537 -0.01569072 -0.13259621 -0.14500013 -0.04505449 -0.038368046
0.02148742 0.01805622 0.15170752 0.10061816 0.00936996 -0.035744824 0.06294814 0.034581665
-0.043478675 0.016283177 0.11219916 -0.058197383 -0.005359018 0.021686532 -0.09055583 -0.08242247
0.06815836 -0.04530216 0.06186348 0.008594688 0.029170796 -0.064436466 -0.023887992 0.04949241
0.041465078 -0.032549083 0.009987633 0.076561816 -0.026016138 -0.20424178 -0.010886153 0.04478832
0.029785104 -0.1307149 -0.04334698 0.061421994 0.055979345 -0.08381317 -0.026252404 0.073714815
0.042108316 0.06778734 -0.077063434 0.007343345 -0.016120922 -0.014054474 0.089707635 0.053060807
0.056917623 0.04470514 0.04512536 -0.08980331 -0.15359455 -0.123747274 -0.09571673 -0.06474431
0.022711739 0.007649241 -0.064118706 -0.09660784 0.0981558 0.07513676 0.047550738 0.10024002
-0.052111443 -0.091863886 -0.09457521 -0.03962869 -0.119317226 0.079164155 -0.061432146 0.2710776
-0.3510635 -0.098117515 -0.014111615 0.13230726 0.14433023 -0.020354228 0.017300496 -0.18055257
-0.061934825 -0.09016904 -0.0735406 0.06985425 -0.030628324 -0.08161933 -0.07548286 0.075549625
-0.021326995 0.10254825 -0.04262706 0.09354711 0.03549337 0.11825752 0.022671644 -0.0016893805
-0.09159172 0.0011934787 0.08732434 -0.020057835 0.0073835715 0.056634907 -0.08191376 -0.090610564
-0.047611374 0.011985044 0.00010198317 0.093876705 -0.0052254517 -0.051572233 0.006247137 0.067728706
-0.25449863 -0.1495459 0.032220595 0.027030936 -0.17718928 -0.24744746 -0.14699794 -0.17338844
-0.19741161 0.041072235 -0.087343395 -0.2514616 -0.14917168 -0.01944463 0.08403448 -0.11989724
-0.09671719 -0.05577289 0.002304954 -0.053174235 0.05256025 -0.028308786 -0.014801763 -0.009149589
-0.07955241 -0.16814463 -0.008234206 -0.061289717 0.030753886 0.08675978 -0.045225307 -0.01637928

lstm.weight_hh_l0 f4 [400, 100]
00000000: 73b9 efbb 0812 5fbe db5f 02bd a7bf fb3d
00000010: 5e11 843c 3690 c23d 29d4 173b fd26 9a3d
00000020: d548 c83c c593 b93d 0c64 31be 00a9 04be
00000030: 9c26 093d 5a8a c6bd a112 06bd b920 8abd
00000040: a62d d0bd 4abd e13c d4de 3c3d c30b 0d3e
00000050: d236 5cbd 55a1 5f3d 5435 9abd 24ae 163d
00000060: d571 94bd 612c b3bd bec8 b0bd 7a27 9d3d
00000070: 04b6 a93d 7648 50bd 5542 86bd bb93 09bd
00000080: 0014 7e3d a6a5 a3bc 747b 90bd d45b d1bd
00000090: 74ec 4f3c 0ead 63bd 9478 5a3e 9637 dfbd
000000a0: 1b6b 303d 6d8a 2f3e 41de f03c bb7e f63c
000000b0: 7e43 423d 2472 a23c 2053 bc3c 71b6 ec3c
000000c0: 2f79 88bd 8fdf 49be 2313 523d 458f c03d
000000d0: 3b58 57bd 78da 823d 13ce a8bc 7c3d 28bd
000000e0: 7944 08bb e02b 7e3d a745 a83c f37f 8cbc
000000f0: 1509 2c3e 0a0a 06be 1f01 403d f4c8 d9bd
00000100: 6b19 61bd 4eb3 0f3e 5143 58be 2af4 113b
00000110: 4980 213d a1ee a8bd 134f aebd 36e6 dcbd
00000120: 28d7 083e c2d3 c23d 5a06 22bd 34eb a53d
00000130: e521 d2bd c441 c0bd c734 48be dd41 fabd
00000140: f015 9f3d 3038 b2bd d45c f13c 9d53 4bbc
00000150: 909d c9bd d0bb dbbc bbf8 ae3d a623 f9bb
00000160: e2bc 27bc 1031 003e ec54 cfbd 47a6 9f3d
00000170: de75 6f3c b4f9 9bbd 4ec7 acbd 302f 48bd
00000180: 2da7 04bc e574 26be 34dd afbd 167a 8abd
00000190: 13b3 01bd 9409 d73d 8806 d03d 604a 833d
000001a0: a6e6 393d a427 9e3d 145b fb3c a50d 7a3d
000001b0: e09d 10bc 507b c3bd faec 9fbd b0c5 e2bc
000001c0: d392 0d3a f21a 543d b068 46bc 3c23 5d3d
000001d0: 4d8a 023e b1fe 363d 3c4d d13c 6ce7 90bd
000001e0: aaf6 7d3d 24a6 c63c 157f adbd 25d1 82bc
000001f0: 11b5 ba3d 8fe4 a7bd 8013 9ebd 4bdf 5cbd
00000200: 66df c6bb 77b7 3cbd 4af0 ee3d 2ba0 e33d
00000210: 8c0d 20bd 65cd 5f3d 0260 b0bd 9196 abbd
00000220: e5d0 373d 1672 043d 9a9f 76bd 96c4 e3bd
00000230: dcd4 d5bd 2bae 98bd e7b5 97bd 0965 f63b
00000240: 84ef db3c 7b29 66bb badd 9e3d 8ba8 a63c
00000250: bfb4 bbbd 2177 133d e7a8 7d3d 360a dcbb
00000260: 5e07 b43d c3ce c63d 9c7b 8ebb 41b5 003d
00000270: a91e 6e3d 7aa5 afbc 9241 febc 003f 9c3d
00000280: 257c 20bd e7cb 3b3d e660 fcbd 262a c93d
00000290: 0469 efbc bf1d a9bb 6098 6e3d dece 74bd
000002a0: f4f3 e33a 30d1 06be f139 aa3c 9e10 5cbd
000002b0: 05a4 583d dc67 823d 9201 363d a02d b4bd
000002c0: 18d8 06bc d92f 77bc 5197 b4bd 4b54 90bb
000002d0: 4516 38bd 7dbe edbd a930 013e 5f71 003e
000002e0: b925 80bd 6002 8b3d 5358 78bd 6243 2fbc
000002f0: 3d7c ee3c 436b bdbd 4a53 8dbd 8378 b73d
00000300: 46c7 eb3c 00d7 51bd 892d 04bd ad81 4b3d
00000310: db21 ec3b 0880 67bb 0a95 dc3c 4d57 383c
00000320: 9813 84bd 1a73 193c c79c 14bd 1d13 4f3d
00000330: 46cf ad3d dc1d 223d 8021 2f3d 43db 2ebc
00000340: 437e 983d 627b ac3d 47ee a83c 5c63 9b3d
00000350: 36ec 78bd 83f3 af3d 8d94 b53d c31d 5abd
00000360: 3681 1f3d b658 3d3d ffb2 3abd 592f 82bd
00000370: 01bb 0abd f03f bc3d 871e 60bd a5e7 7e3d
00000380: 823e 8f3d 44c9 0ebd 873a 90bd f030 c8bc
00000390: e572 28bc f007 55bd b02b 8ebd a7ea 02bd
000003a0: 173e 9bbd 48fd 933d bd90 3bbd b5d5 babd
000003b0: c179 113d b141 b9bd 1faa fbbb b67a 19bd
000003c0: a793 a33d 94bd a1bd c091 a33d f14b 97bb
000003d0: 520f 0abd c650 cdbd 8c3e 47bc 7798 783d
000003e0: 6008 873d ed41 0f3d dbdc 413d 2eee a8bd
000003f0: 05cd 383d 2e70 aa3d ee27 2f3d fbdb 173d
-0.0073158084 -0.21784222 -0.031829696 0.12292414 0.016121563 0.09500162 0.0023167229 0.07526968
0.024448792 0.09061388 -0.17323321 -0.12955093 0.033484086 -0.09694357 -0.03273261 -0.067445226
-0.10164957 0.02755608 0.046110943 0.13774018 -0.05376322 0.054597218 -0.07529703 0.036787167
-0.07248274 -0.08748699 -0.086320385 0.07673545 0.0828667 -0.050850354 -0.065556206 -0.033588152
0.062030792 -0.019976448 -0.07054797 -0.10222593 0.012690652 -0.05558496 0.2133506 -0.10899274
0.043070894 0.17142649 0.029402854 0.030089727 0.047427647 0.019829817 0.022988856 0.028895589
-0.06663739 -0.19714187 0.05128778 0.094023265 -0.052574378 0.06389326 -0.020606076 -0.04107426
-0.0020792766 0.06205356 0.020541025 -0.017150855 0.1680034 -0.13089767 0.04687607 -0.10634032
-0.05495588 0.14033243 -0.21119429 0.0022270777 0.039428983 -0.0824864 -0.08511176 -0.10786097
0.13363326 0.09513046 -0.03955684 0.08101502 -0.10260371 -0.09387544 -0.19551383 -0.12219594
0.07767856 -0.08702123 0.02946321 -0.012410072 -0.09844506 -0.026822954 0.08543535 -0.0076031266
-0.010237904 0.12518716 -0.101236194 0.07795387 0.014615504 -0.076159865 -0.08436452 -0.048873127
-0.008096498 -0.16255529 -0.08587113 -0.06761567 -0.03166492 0.10499874 0.10157496 0.0641067
0.04538598 0.077224046 0.030683078 0.06104817 -0.008826703 -0.09545004 -0.078088716 -0.027682155
0.00054006017 0.05178351 -0.01210992 0.05398868 0.1274807 0.044676486 0.025549524 -0.0707539
0.062002815 0.024249144 -0.084715046 -0.015968869 0.09116567 -0.08197891 -0.07718563 -0.053923886
-0.0060691116 -0.046073403 0.11666925 0.11114534 -0.03907542 0.05463924 -0.08612062 -0.08378328
0.04487695 0.032335363 -0.0602108 -0.1112148 -0.1044099 -0.07455095 -0.07407742 0.0075193685
0.026847608 -0.003511994 0.07757135 0.02034404 -0.09165334 0.036002282 0.061928656 -0.0067150844
0.08790468 0.097074054 -0.0043482315 0.031422857 0.05813471 -0.02144121 -0.031037126 0.07629204
-0.039180893 0.045848753 -0.123231694 0.09822492 -0.02922488 -0.0051610167 0.058250785 -0.059767596
0.0017391429 -0.13165736 0.020779582 -0.053726785 0.052890796 0.06367466 0.04443509 -0.08797765
-0.008230232 -0.015087091 -0.08817924 -0.0044045798 -0.044943113 -0.116085984 0.12616219 0.12543248
-0.06257195 0.06787562 -0.060631108 -0.010697218 0.029111976 -0.09248974 -0.06900652 0.08958533
0.028781544 -0.05123043 -0.03226999 0.049684215 0.0072061843 -0.0035324115 0.026926536 0.011251283
-0.0644905 0.009365821 -0.036282327 0.050555337 0.084868 0.039579257 0.042756557 -0.010672393
0.074459575 0.08421971 0.020621432 0.07587311 -0.060772143 0.08591368 0.088662244 -0.05325104
0.038941585 0.04622718 -0.04558086 -0.06356687 -0.033869747 0.091918826 -0.054716613 0.062232632
0.06994344 -0.03485991 -0.07042413 -0.024437398 -0.010281299 -0.052009523 -0.069419265 -0.031962063
-0.07580202 0.07226044 -0.04579233 -0.09122793 0.035516504 -0.09045733 -0.007680192 -0.037470542
0.07987147 -0.07897487 0.07986784 -0.004617207 -0.033706017 -0.10025172 -0.012160908 0.060692277
0.06593394 0.03497498 0.047329765 -0.08248554 0.045117397 0.08322178 0.04276269 0.037075024

lstm.bias_ih_l0 f4 [400]
00000000: ad1c 12be 0950 673d 11c7 bb3d 1ac5 dcbd
00000010: f2cb 243c c668 85bd 6347 14bd 34ce 07be
00000020: 3965 14bd 76f3 bc3c 93ce 4b3d c4cb dbbd
00000030: c604 0f3d fdbd 0fbe 72f1 05bd 4b81 e83d
00000040: 8d8b 2dbe b55a f0bd 4e02 6dbd b29c d43d
00000050: 02e3 03be 734e 803c ceea a4bd a4eb b73c
00000060: 8aba 7dbd 7797 8abd 9be0 4cbd f448 d23d
00000070: 5d4f e43c 87a7 10bc a9f0 6f3d b938 583d
00000080: 38fe 483d 3be4 9ebd 7e2c 17bd 78e1 cdbd
00000090: 4134 4b3d 92b4 94bd e9d3 3fbe 3384 c53c
000000a0: ed76 2c3d 4d0d 4e3d ffb3 0dbe 7ba5 2ebc
000000b0: ecc2 13bd 4e21 ffbd 9d3f 6b3d e6cb 2fbc
000000c0: 35ad 94bd a94a 243c d7cc 8e3d 3e21 4d3d
000000d0: 9791 29be 4506 74bd 4527 b03d c56a 8c3d
000000e0: c83b b2bc cd4a f1ba b5f4 173d c9f7 433d
000000f0: c42b a8bd dcf6 ea3c 59f3 d93c 2a45 b93c
00000100: 8568 8f3c 3aee f03d 9001 c53c a3a5 193e
00000110: 9e7d a83d 018f d03c 4b30 553c a8af 56bc
00000120: 0f1c 1fbc e6e6 443d f070 fcbd cb5e 11bd
00000130: a271 c13d 51f8 abbd a424 793d f780 66bd
00000140: 708a f9bd 3401 453c 42b2 e8bc 3c22 593d
00000150: cacf a73b f835 8bbd 5391 3e3d cb79 4abd
00000160: dbb2 15bd 1bf4 883c 2c99 183c 12dd a6bd
00000170: 9400 933d dc50 833c fd20 bbbc eb2c 76bd
00000180: 95de 563d 1158 293d 1d48 8dbb a007 473c
00000190: 6224 033e f826 c4bc 46c7 d8bc d45d 993c
000001a0: 5a49 113d 7790 823d dc13 c9bd 5353 743d
000001b0: e396 03bd 3dd7 0c3d 8805 a8bd e282 6c3d
000001c0: 5376 aabc c7cf 483d 09ee 9ebd e668 a93d
000001d0: 6208 8bbd 9e95 ddbd 6150 943c 0681 6abb
000001e0: 3b5d 6fbd 06a9 dfbd eebe 9fbd 568a 873d
000001f0: a4a7 74bd 25b2 cdbc a65b d73c 0e73 eabd
00000200: 9d84 483d ae78 4a3d 5ff1 b0bd 319f 9abd
00000210: 31dc 45bd ae27 58bd 0157 1ebd dad4 b33d
00000220: 3bbc 9e3d 32da 9dbc e40d 143d bc48 ecbc
00000230: 999d 4cbd 26b5 febd ce6a 02be dee8 41bd
00000240: 3c49 563d 6737 f53c 7664 82bd a93c b6bd
00000250: f552 66bd af62 0dbe 5578 86bd a119 c2bb
00000260: 84a0 7d3d f9d9 b9bb 768e 87bd fdbe ddbc
00000270: 2691 f83d 3e6a 3dbd bd78 7fbd 6e73 a8bd
00000280: e1ab 2cbd 2bb1 083d 3f29 cfbd 1365 82bd
00000290: d561 3c3d 2612 323d 6903 04be dee9 adbd
000002a0: 1e59 d63c 6a50 9b3d 6f9b 993c ae1d 0d3d
000002b0: 5365 d53c 04de 2bbd 3507 f3bd 9539 07be
000002c0: 39c8 013e 646d 783d 5a01 87bd 3d0a 083c
000002d0: 6ae1 503c 3339 233c 0a43 acbd 7ce0 373d
000002e0: 80fe ddbd 472c 7d3c f134 18bd 4ed6 863d
000002f0: b5c6 863d f344 98bb 60fa 05be a4f6 97bd
00000300: d141 d2bb ff5e ba3d 5116 bbbd 4498 28bc
00000310: d902 563d 2490 a73d af52 563d 3e90 2cbd
00000320: 67bf f3bd d537 f6bc e39d a2bd a88e 48bd
00000330: b448 89b9 0f05 9cbd e53b a2bd 4178 45bc
00000340: 36bb cbbd df6a 9f3d b25b 1d3e a96b cdbc
00000350: 894c 8a3d 8101 2abd aab7 823d e5e2 cf3d
00000360: 936d 0f3c 2494 f5bb 4774 a13d b73d 0bbc
00000370: d504 133d 3d6c c73d 05bd a23c 7dab 7fbd
00000380: babb cf3c 5e04 2bbd 2653 373b dfa1 ac3c
00000390: 4b05 c13d 3683 843c 240e 74bd bada 0ebc
000003a0: d2ca c9bb ff1e ed3c 1bee b13d 0392 ac3d
000003b0: ea21 fb3c b070 a23d 9038 663c a3d4 d0bc
000003c0: 6c42 473d 90cc a43d af13 b7bc 8eab 65bd
000003d0: 02c0 3bbd e69a a63c dcb2 9e3d 3a8b 513d
000003e0: 5b59 553d 59aa c23d 9810 a43d 1bdc abbd
000003f0: 6adb 883c c07b 75bc d47a 153d 28ed eabc
-0.14268751 0.05647281 0.09168828 -0.10779782 0.01005839 -0.065141246 -0.036200892 -0.13262254
-0.036229346 0.02306531 0.04975755 -0.107322246 0.03491666 -0.14037319 -0.032700963 0.11352786
-0.16947766 -0.11736051 -0.057863526 0.1038145 -0.12879565 0.015662408 -0.08052598 0.02245123
-0.061945476 -0.06767171 -0.050018888 0.10267821 0.027869875 -0.008829004 0.05857912 0.05278847
0.049070567 -0.07758375 -0.036907665 -0.100527704 0.04961038 -0.072610036 -0.18733181 0.024110889
0.042105604 0.050305653 -0.13838194 -0.010659571 -0.036074564 -0.12457524 0.057433713 -0.0107297655
-0.07259599 0.010027566 0.06972664 0.05008053 -0.16559444 -0.05957629 0.0860124 0.06856302
-0.021757022 -0.0018409133 0.037098605 0.04784373 -0.08211473 0.028682165 0.026605295 0.022615988
0.017505893 0.11764188 0.024048597 0.15004592 0.082270846 0.025458815 0.013012002 -0.013103403
-0.0097112795 0.048071764 -0.123262286 -0.035490792 0.09445502 -0.08396972 0.06082596 -0.056275334
-0.12184608 0.012024213 -0.028405312 0.053011164 0.005121206 -0.06797403 0.04652531 -0.049432557
-0.036547523 0.016717961 0.009313863 -0.081476346 0.07177845 0.016029768 -0.022842878 -0.06010143
0.052458365 0.041343752 -0.004311575 0.012147814 0.12806848 -0.023944363 -0.026462208 0.018721499
0.035470344 0.06375211 -0.09818241 0.059649777 -0.03212632 0.034384955 -0.0820418 0.057742007
-0.020808375 0.049026277 -0.07760245 0.08271961 -0.06788708 -0.10819553 0.018104734 -0.003578247
-0.05843852 -0.109209105 -0.07800089 0.06618182 -0.059730187 -0.02510936 0.026288819 -0.11447726
0.048954595 0.049431495 -0.08639788 -0.075498946 -0.048305694 -0.052772216 -0.038657192 0.087808326
0.07750746 -0.019269083 0.03614606 -0.028843276 -0.049954984 -0.12436895 -0.12736055 -0.04734122
0.052315935 0.029933644 -0.06366818 -0.08898289 -0.056231458 -0.13807176 -0.0656592 -0.0059234654
0.061920658 -0.0056717363 -0.06618969 -0.02706861 0.1213706 -0.0462439 -0.062371004 -0.082251415
-0.042156104 0.033372086 -0.10115289 -0.063669346 0.045991737 0.04347434 -0.12891926 -0.08491872
0.026165541 0.07583697 0.018750874 0.034452133 0.026049292 -0.041959777 -0.11866609 -0.1320556
0.12674035 0.060651198 -0.06592055 0.008303222 0.012749055 0.009962368 -0.08411224 0.04489182
-0.10839558 0.015452451 -0.037159864 0.06583844 0.06580869 -0.0046468913 -0.13083792 -0.0742009
-0.0064165373 0.0910015 -0.09135116 -0.010290209 0.05224881 0.081817895 0.052324947 -0.042129748
-0.119017415 -0.03005592 -0.07940271 -0.048964173 -0.00026184844 -0.07618152 -0.0792158 -0.012052597
-0.09947817 0.07784056 0.1536701 -0.02507575 0.06752879 -0.04150534 0.063826874 0.101506986
0.008754152 -0.0074944664 0.07883506 -0.008498601 0.03589328 0.09737442 0.019865522 -0.062419403
0.02535807 -0.04175221 0.0027973144 0.02107328 0.09424838 0.016175848 -0.059583798 -0.008719141
-0.0061582113 0.028945444 0.08687993 0.08426287 0.03065582 0.0793165 0.0140515715 -0.025492018
0.04864733 0.0804683 -0.022348253 -0.05607181 -0.04583741 0.020337533 0.077489585 0.051158167
0.05208717 0.095051475 0.080109775 -0.08391591 0.016706187 -0.014983118 0.03649409 -0.028677538

lstm.bias_hh_l0 f4 [400]
00000000: eb13 b0bc 7857 29bd edb1 74bd 70e3 d5bd
00000010: 7be5 f5bc 87f9 4cbd aead ba3c 3bf0 7cbd
00000020: 2f4c 883b b199 bc3d da1f 4b3c 5984 203c
00000030: 9c23 30bb 0c91 a2bd ea89 a63c 4ab8 643d
00000040: 6c98 e6bd 5c39 16be 5ddd 6ebd 7ab7 d03c
00000050: 1a2e 97bd 1e95 ccbc fcfd 633b 81fd c5bd
00000060: 7b2c bbbd d1a1 723d 6b67 563d 568b 123d
00000070: 489a c4bd 7547 703d 24b8 b8bc 6e6d da3d
00000080: 0ea3 bcbd b48b 7abc c671 e9bc 0b8e d3bd
00000090: 0498 4bbd 40d4 2abb e12d 8cbd 769f f93d
000000a0: 9700 373d 3fcc 033d 07a3 7cbd 61e2 903d
000000b0: 097a 8d3c c551 d9bd d9b3 3c3a db4f ca3d
000000c0: 4fee 1cbd 9ed5 2cbd 3dbd 23bd 17e6 533d
000000d0: 0d33 bd3c 95cd d53c 0ea0 dbbb 4b73 6ebd
000000e0: 12c1 aa3c 91e0 f83c eac7 863d 1f5e d8bd
000000f0: 368f 9f3d d183 b43d 8c3d 313e 5afa 3c3d
00000100: 148c c43c f4fb 4dbd 6222 ba3c b2a0 02bc
00000110: 4974 913d 68cf 843c eb0c eb3b fd0f 94bc
00000120: 2e6b 4f3d 9a16 103d 2f49 19be 23f6 ec3c
00000130: 4c43 b03c 1db0 a4bd b584 873d a14a 27be
00000140: e5a8 2ebe 8a07 05be 6ab7 abbd 8cc2 343d
00000150: 6904 1bbd 1010 5bbd 79e5 e5bc 9ed8 443d
00000160: 2d93 aabd 7d56 2a3d 9d80 bc3d 07e8 893c
00000170: 47bb 6e3d 2ccf ef3d 246f 8dbd c745 c0bd
00000180: 0d1b 49bd 6f32 ba3d e288 dbbb dfe3 3f3d
00000190: 9c79 1b3e 2da2 cbbd 0251 d33c 32d2 b8bd
000001a0: 5b23 29bd c295 bebd 8904 253c 5943 cabd
000001b0: f978 88bd 2b07 cabd 2710 6339 fa24 d4bd
000001c0: e600 113d 42e4 1f3d e4ac a0bd 46c3 113d
000001d0: 2dea ffbd df81 b2bd 5279 c9bd 1223 f43d
000001e0: 0fc1 693d 0c34 84bc a2d9 26bd b35a 8ebc
000001f0: 7d03 f1bd ded2 233d 575c f0ba 221a 13be
00000200: 0121 713d caf2 773d fd25 683d 8201 adbd
00000210: 2d67 603d c9a7 8fbc 2481 993d 2302 723d
00000220: 20c7 a03d 82c7 8c3c 4caa 9dbd 92ad 033b
00000230: 1a17 3f3d 0879 64bc 3391 273d 0b3b a93d
00000240: 90b4 dbbd 525f 91bd 79c7 c5bb 1d72 26be
00000250: 17d9 423d 8e82 8bbd ccbd 06bd e67a babc
00000260: 7ea2 bf3b 3205 353b 2392 23be 5fa7 79bd
00000270: 51c7 8dbc 7625 f6bd e9f9 d3bd db56 eebd
00000280: ca7c 1cbe 0949 983d 7b64 15be f31e 94bd
00000290: cd66 253d ee9e cabc 25b5 86bc de14 a2bd
000002a0: 7b11 65bd 18b6 82bd 0453 98bc b83a 2b3d
000002b0: 7eed 36bc 168d 573d 2589 6fbd 6821 cebc
000002c0: 6e0b 2d3d de40 0a3d bc30 9abd 8200 ac3d
000002d0: 2caf 6abd a8d6 2abc af77 e7bd 33c1 2a3c
000002e0: fd1b 963c 7888 e13d d577 5a3d 0819 babd
000002f0: 7ee5 853c d20a 363d b027 06be 7a87 8bbd
00000300: 2695 063e bf43 d93d 221a d73c 6882 1dbe
00000310: d792 89bd 3cb3 133d 5f65 6fbc 103a 86bd
00000320: bf29 cabc abcc 433c 2410 ac3d 5c94 6fbd
00000330: 659e 3c3d 4fb5 6fbd ab9b 9d3d 52cb 493d
00000340: 5143 94bd 6d80 9b3d 0227 0d3e 5cd8 d5bc
00000350: 46e7 32bc a195 05bc 2da3 013d ff68 f03d
00000360: 7d82 78bd 04bb 883d c26e b93d 86f8 28bd
00000370: 8c0b 31bd 6d62 e33d af13 50bd 076b 2e3c
00000380: 2d7e 283d 145d 3dbd 80d9 bb3c d719 033d
00000390: 5126 80bd 3cc9 07bc 38e7 983d b234 8f3d
000003a0: 303c 53bd 9995 0139 61ed 8e3c c80e 563c
000003b0: 4e62 ba3d 8123 9abc 4516 97bd 0977 ebbd
000003c0: 3d3a 443c 7c98 e13c 852c 093d beb2 17bd
000003d0: 172a 25bd ea3f 87bd 2704 483d 738a e03c
000003e0: c339 aebd ddbd 9bbd 4c89 b6bd be33 22bd
000003f0: e1a0 003e 7eb0 46bd ff27 96bc f725 45bd
-0.021493873 -0.041343182 -0.059739996 -0.10443771 -0.030016651 -0.050042655 0.022787895 -0.06175254
0.0041594724 0.09209002 0.012397731 0.009797179 -0.0026876694 -0.07937822 0.020329434 0.055839814
-0.11259541 -0.14670318 -0.058316577 0.025478113 -0.0738184 -0.024973448 0.0034788838 -0.09667493
-0.09139343 0.05923635 0.05234472 0.035777412 -0.09599739 0.058661897 -0.022548743 0.10665403
-0.09210788 -0.015292097 -0.028496634 -0.10329827 -0.04970552 -0.0026066452 -0.06844688 0.12188618
0.044678297 0.032177206 -0.061678912 0.07074428 0.017270105 -0.106112994 0.000719843 0.098785125
-0.038313206 -0.04219591 -0.039975394 0.051733103 0.023095632 0.026099006 -0.0067024296 -0.05821542
0.020844016 0.03038052 0.06581099 -0.10564827 0.07790987 0.088142045 0.17308635 0.04613719
0.023992576 -0.05028911 0.022721473 -0.007972883 0.07102258 0.01621218 0.007173171 -0.01807403
0.050639324 0.035177805 -0.14969324 0.02892596 0.021516465 -0.080414034 0.06617109 -0.16337062
-0.17056616 -0.12991157 -0.08384593 0.044130847 -0.037846003 -0.053482115 -0.028063523 0.048058145
-0.08328853 0.041586388 0.092042185 0.016834272 0.05828407 0.11709437 -0.06905964 -0.09388309
-0.049098063 0.09091651 -0.0066996673 0.046848174 0.15183109 -0.09943042 0.025795463 -0.090244666
-0.041293483 -0.09305908 0.010071882 -0.09876127 -0.06663699 -0.098646484 0.00021654424 -0.10358615
0.035401247 0.039036043 -0.07845476 0.035586618 -0.12495837 -0.08716177 -0.09837593 0.11920752
0.05706888 -0.0161381 -0.040734895 -0.017377233 -0.117682435 0.03999602 -0.0018338066 -0.14365438
0.058869366 0.060534276 0.056676853 -0.08447553 0.054785896 -0.01753606 0.07495335 0.05908407
0.0785048 0.017184976 -0.07698497 0.002009247 0.04665289 -0.013944872 0.040909957 0.08263215
-0.10727799 -0.07098259 -0.006035742 -0.16254468 0.047570314 -0.06812011 -0.03289585 -0.02276368
0.005848228 0.0027621505 -0.15973715 -0.060950633 -0.017306956 -0.12018864 -0.10350401 -0.1163766
-0.15281978 0.07435805 -0.14589112 -0.072324656 0.04038124 -0.024733987 -0.016443798 -0.07914136
-0.055924874 -0.06382388 -0.018594272 0.041804045 -0.011165021 0.052624784 -0.0584804 -0.025162414
0.04224723 0.03375327 -0.075288266 0.08398534 -0.057295963 -0.010427155 -0.11302125 0.010422039
0.018323893 0.110123575 0.053336937 -0.090868056 0.016344782 0.044443913 -0.13101077 -0.068129495
0.13142833 0.10608625 0.026257578 -0.15381777 -0.067174606 0.036059603 -0.014611571 -0.06554043
-0.02467811 0.011950652 0.08401516 -0.058491096 0.046049494 -0.05852252 0.07695707 0.049266167
-0.07239402 0.07592855 0.13784412 -0.026104145 -0.010919398 -0.00815335 0.031649757 0.117387764
-0.06067132 0.066762954 0.090543285 -0.041252635 -0.043223903 0.111027576 -0.05080002 0.0106456345
0.041135956 -0.046231344 0.02293086 0.032007065 -0.06257308 -0.008287724 0.074659765 0.06992473
-0.05157107 0.00012358128 0.017447175 0.013065048 0.091007814 -0.018815758 -0.073772945 -0.114973135
0.011976776 0.02753853 0.033489723 -0.037035696 -0.040323343 -0.066039875 0.048832085 0.027409768
-0.08507111 -0.07604573 -0.08912906 -0.039600126 0.1256137 -0.04850816 -0.018329618 -0.04813191

hidden_to_y.weight f4 [1, 100]
00000000: 5fda 823c f84e 623d 2c5d a23c 270b fdba
00000010: 1bce 633b 304a 483d f765 ca3c 9d09 ef3b
00000020: b9b5 9e3c bb53 a73a 0dc3 9cbc 449b 0ebd
00000030: 9642 263d fd18 593d 2e38 1cbc ed2f 213d
00000040: 6f2d 443a 1571 973b 7f3b 26bc c5a0 5f3a
00000050: c66f 1abd da1d b53b 1376 e33a 6ba2 3cbb
00000060: 8425 06bd beeb 16bd 96fd 54bc 890e 953c
00000070: e7c0 0c3c e4fb a13c 9391 91b9 5361 bd3c
00000080: 24a4 fbbc 5a1e 4b3c d7a2 173b 1234 20bc
00000090: 8e5c a2bc f686 8fbc ab72 7bbb b9ac 82ba
000000a0: 476b 20bb 8e8f 4e3b f332 363c 8ddd 3fbd
000000b0: a0f6 093b 4493 163b bfaf 223c ced8 26bc
000000c0: 4585 6c3b b07a c1bc fb9b 0abc 74ca edbc
000000d0: b99c 07bd 595c 82bb 449d 2dbd 13af 53bc
000000e0: f947 813d fbfa 40bc e4e0 d3b9 5274 103d
000000f0: b9a0 11bd 1140 06bc 4b3f 8cbd 916f 10bb
00000100: 9edd d33c 0164 f53c 075b bc3d 0998 23bd
00000110: a068 8dbb 858a a03b 408b 0f3d ffdf a83b
00000120: 4b92 523a 9192 053d 9a2f e73c 0735 a43d
00000130: c93c 52bd f3f7 25bc 694a 49bc ef03 2abc
00000140: 2a88 d0bb fdb2 2d3c c14b f53a 58f3 ccb9
00000150: 5233 eabb 3eb6 093c 69ff fdbc 61f6 3dbd
00000160: 18c3 3cbb 58e8 07bd b8c0 373c 9a18 3d3d
00000170: 6cd1 c4bb 35ad 8cbd 1cd3 0ebd bd3e 0e3c
00000180: 0afe 2b3c 5bd0 3cbc fc71 b13c 307b 323b
0.015973268 0.05525109 0.019819818 -0.0019305692 0.00347603 0.048898876 0.024706824 0.007294847
0.019373761 0.0012766042 -0.019135976 -0.03481604 0.040590845 0.053002346 -0.009534879 0.039352346
0.0007483577 0.0046216347 -0.010146021 0.00085307314 -0.03770425 0.00552724 0.0017353914 -0.0028783332
-0.03275062 -0.036845915 -0.012999913 0.018195407 0.008590913 0.019773431 -0.00027765016 0.023117697
-0.030717917 0.012397373 0.0023137832 -0.0097780395 -0.019819524 -0.01752041 -0.0038367908 -0.0009969688
-0.0024478005 0.003151867 0.011120546 -0.046842147 0.002105154 0.002297596 0.009929596 -0.010183526
0.0036090177 -0.023618072 -0.00846004 -0.029027201 -0.033108447 -0.003978294 -0.04238631 -0.012920159
0.06312556 -0.011778588 -0.00040412613 0.03526718 -0.035553668 -0.008193986 -0.0684801 -0.0022039155
0.025862511 0.029954912 0.091970496 -0.039939914 -0.004315451 0.0048993253 0.03504491 0.0051536555
0.00080326636 0.03261048 0.02822094 0.08017927 -0.0513275 -0.0101299165 -0.012285807 -0.010376914
-0.0063638883 0.010601756 0.0018714593 -0.00039091217 -0.007147231 0.008405266 -0.031005578 -0.046377543
-0.0028802808 -0.033180565 0.011215381 0.04616604 -0.0060064103 -0.06868974 -0.0348693 0.00868195
0.010497579 -0.011524285 0.021660797 0.002723407
