py/models/gmd_LSTM_mb16.pt (torch_old, 187059 bytes, 5 tensors)

lstm.weight_ih_l0 f4 [400, 14]
-0.0632466 -0.00045064648 -0.06134472 -0.033060182 -0.060692128 0.018136894 -0.073484875 0.032897614
0.03486102 -0.030608708 0.06697475 0.026645316 0.077976935 0.06416052 -0.041727286 0.036850493
-0.040117644 0.031807303 -0.05206811 0.046622023 0.019341376 -0.03981736 -0.048589855 -0.0079053175
0.10695255 0.05036125 -0.006842322 -0.0048538297 0.051850546 -0.059590172 0.03949438 -0.039586432
0.053662762 -0.03521289 0.0044019376 0.026437651 0.06698209 -0.00047535324 0.099923864 -0.07670779
-0.010605639 -0.09971758 0.027153524 0.03686413 -0.030406563 0.03995152 0.0015142633 -0.09559009
0.07946717 0.06394108 0.034163177 0.09207905 0.018449668 0.044162698 0.0664154 -0.020148262
-0.059133954 -0.038847987 -0.0084238285 0.009387371 0.003162487 0.059151426 0.042654693 -0.07995955
-0.02778825 0.0052705663 0.07767445 -0.021264782 -0.030268194 -0.01607804 -0.038925845 -0.010832338
-0.08349693 0.09980799 0.04638702 -0.056916956 -0.06967218 -0.0043332567 0.06770344 -0.08463215
-0.034889117 0.048457514 -0.057604875 -0.011135004 -0.089426436 0.081761494 0.0406321 -0.101417065
-0.06768572 0.030471437 -0.008250395 0.017364787 -0.09281898 -0.06912082 0.030679287 -0.09074716
-0.033513404 0.04397548 0.044201773 -0.00800668 -0.000543496 0.08028926 -0.04877001 -0.036175963
0.09159241 0.12106137 0.047495145 -0.0011327632 -0.09537602 -0.10752935 -0.008185071 -0.038368046
-0.010236381 0.0011999478 0.11320271 0.09186274 -0.0034721568 -0.029678944 0.050024528 -0.011540195
-0.0802864 0.023803359 0.113766946 -0.060863752 -0.0065106065 0.021686532 -0.0833524 -0.07607026
0.08792242 -0.026342789 0.068374924 0.009314198 0.02499384 -0.06974995 -0.028926395 0.08248093
0.062297776 -0.017878942 0.016051548 0.076561816 -0.10099071 0.06504447 -0.024351507 0.0033007315
0.03126459 -0.10400569 -0.028953815 0.07567694 0.049931113 -0.053865634 -0.018512655 0.08056275
0.0432722 0.06778734 -0.075076625 0.017161848 0.0019040287 0.0081905415 0.087741606 0.05609909
0.058566153 0.049568966 0.028506346 -0.007755029 -0.10392473 -0.098721236 -0.08839932 -0.06474431
0.03754486 0.02338222 -0.0369459 -0.07939694 0.09662037 0.075102665 0.046100266 0.09817299
-0.058031395 -0.06846351 -0.07094562 -0.015780376 -0.09806381 0.079164155 0.001564446 0.045126908
-0.08343018 -0.030098747 0.007369751 -0.0060287146 0.105790466 -0.0382569 0.031437155 -0.07601461
-0.022285333 -0.037374966 0.032798614 0.06985425 0.033988103 0.059529137 -0.0047821845 0.06794061
-0.03638806 0.07244279 -0.043645833 0.09861749 0.12004263 0.014283921 0.11465223 0.085390314
-0.00029373207 0.0011934787 0.034838647 -0.04163858 0.0024787155 0.060733695 -0.08450523 -0.09586615
-0.061055027 0.003748764 -0.033632845 0.0032130785 -0.045497656 -0.088971384 -0.002266877 0.067728706
-0.05139059 0.09948666 0.04240247 0.08558755 -0.044418465 -0.10723104 0.012814896 -0.07436511
-0.111932464 0.07988732 0.035565905 -0.08824322 0.060496073 -0.01944463 0.08998601 -0.03195367
-0.083670095 -0.0662835 0.0033868323 -0.058102217 -0.025668528 -0.11277573 0.03068526 0.0025957762
0.028692633 -0.07799487 0.074175015 -0.061289717 0.064442046 0.07539796 -0.04637583 -0.0033760718
00000000: 6f87 81bd bf44 ecb9 9a44 7bbd 1d6a 07bd
00000010: 4f98 78bd d393 943c 3d7f 96bd a6bf 063d
00000020: 6eca 0e3d 1dbf fabc 0f2a 893d 4747 da3c
00000030: 5fb2 9f3d 9766 833d 3bea 2abd 8bf0 163d
00000040: 6652 24bd 6048 023d 5f45 55bd bcf6 3e3d
00000050: ce71 9e3c 8717 23bd 2806 47bd 4e85 01bc
00000060: f009 db3d 9947 4e3d 8f35 e0bb e00c 9fbb
00000070: 3d61 543d d314 74bd dcc4 213d 6225 22bd
00000080: 7ccd 5b3d 643b 10bd 213e 903b c693 d83c
00000090: e82d 893d d538 f9b9 e2a4 cc3d f918 9dbd
000000a0: 46c3 2dbc bb38 ccbd 1171 de3c d8fe 163d
000000b0: 2f17 f9bc 34a4 233d 3f7a c63a bdc4 c3bd
000000c0: afbf a23d 8af3 823d b0ee 0b3d f193 bc3d
000000d0: c223 973c f2e3 343d cc04 883d f80d a5bc
000000e0: 7236 72bd 111f 1fbd 1904 0abc 7dcd 193c
000000f0: ba41 4f3b c448 723d b0b6 2e3d d5c1 a3bd
00000100: 2fa4 e3bc b7b4 ac3b c813 9f3d 7b33 aebc
00000110: 01f5 f7bc 18b6 83bc b570 1fbd 1e7a 31bc
00000120: 7000 abbd 2268 cc3d 5100 3e3d c121 69bd
00000130: 4ab0 8ebd fefd 8dbb 1aa8 8a3d 9f53 adbd
00000140: e4e7 0ebd 637b 463d 17f3 6bbd 986f 36bc
00000150: 3525 b7bd 9272 a73d d86d 263d c0b3 cfbd
00000160: d09e 8abd 3c9f f93c aa2c 07bc 9940 8e3c
00000170: e117 bebd 378f 8dbd 2153 fb3c a6d9 b9bd
00000180: 5a45 09bd a21f 343d eb0c 353d 732e 03bc
00000190: 6679 0eba b26e a43d 10c3 47bd 3f2d 14bd
000001a0: cd94 bb3d 06ef f73d 458a 423d 3a79 94ba
000001b0: 8154 c3bd 5938 dcbd ad1a 06bc d027 1dbd
000001c0: 7eb6 27bc 9147 9d3a d3d6 e73d 8822 bc3d
000001d0: 208d 63bb 4221 f3bc 85e6 4c3d 1613 3dbc
000001e0: 326d a4bd 43ff c23c a5fe e83d 454c 79bd
000001f0: ed56 d5bb f4a7 b13c aab4 aabd b9ca 9bbd
00000200: ab10 b43d d5cc d7bc 2708 8c3d 949a 183c
00000210: e2bf cc3c 10d9 8ebd 0cf7 ecbc c3eb a83d
00000220: f42b 7f3d dc76 92bc 897e 833c 71cc 9c3d
00000230: 38d4 cebd 0936 853d d07c c7bc 1651 583b
00000240: 4c0f 003d ef00 d5bd 8d30 edbc 83fc 9a3d
00000250: 9184 4c3d 36a2 5cbd daa7 97bc 15fe a43d
00000260: 313e 313d 17d4 8a3d c6c1 99bd 0197 8c3c
00000270: 9a90 f93a 9f31 063c dfb1 b33d 29c8 653d
00000280: 10e3 6f3d d408 4b3d 2486 e93c e61d febb
00000290: 7dd6 d4bd 5c2e cabd b40a b5bd aa98 84bd
000002a0: a4c8 193d 128c bf3c 9654 17bd dd9a a2bd
000002b0: e7e0 c53d 6dcf 993d a2d3 3c3d ec0e c93d
000002c0: 54b2 6dbd 9936 8cbd f04b 91bd d945 81bc
000002d0: aed5 c8bd d120 a23d 190e cd3a fed6 383d
000002e0: 71dd aabd a691 f6bc f47d f13b 868c c5bb
000002f0: aca8 d83d 44b3 1cbd 3fc4 003d 8cad 9bbd
00000300: bb8f b6bc 7e16 19bd d757 063d bf0f 8f3d
00000310: 1c37 0b3d d3d4 733d dfb3 9cbb 7224 8b3d
00000320: a50b 15bd e35c 943d f9c5 32bd f7f7 c93d
00000330: e9d8 f53d 1b07 6a3c cace ea3d 1ee1 ae3d
00000340: 0d00 9ab9 806e 9c3a f8b2 0e3d 378d 2abd
00000350: f271 223b e5c3 783d 1411 adbd 7955 c4bd
00000360: d614 7abd d3ad 753b 98c2 09bd 8392 523b
00000370: c05b 3abd a136 b6bd e38f 14bb 59b5 8a3d
00000380: f07e 52bd a9bf cb3d 36ae 2d3d 8748 af3d
00000390: 23f0 35bd f39b dbbd 92f5 513c bc4c 98bd
000003a0: d93c e5bd f79b a33d 8ead 113d dcb8 b4bd
000003b0: bbca 773d 584a 9fbc 964a b83d dae1 02bd
000003c0: 3a5b abbd a5bf 87bd 9ef5 5d3b 97fc 6dbd
000003d0: ce46 d2bc f6f6 e6bd a85f fb3c e61d 2a3b
000003e0: d00c eb3c c6bb 9fbd 12e9 973d ed0a 7bbd
000003f0: 31fa 833d 3f6a 9a3d 95f4 3dbd 1641 5dbb

lstm.weight_hh_l0 f4 [400, 100]
-0.06439631 -0.07227891 -0.09021874 -0.009133489 -0.08712474 -0.013560232 -0.021333138 -0.061749358
0.041359387 0.103815906 -0.014782365 -0.09236661 0.058181003 0.013281434 -0.023120977 -0.09562164
-0.072488494 0.026293017 0.031187706 0.0037229594 -0.055007152 0.09247539 -0.09248108 0.041743487
-0.08739624 -0.09364595 -0.107210055 0.049270835 0.12362434 0.0372773 -0.058247983 -0.08736946
0.09040921 -0.040720545 -0.07650556 -0.07486661 0.015458245 -0.04879356 0.054975275 0.016519696
0.059805036 0.024399335 0.037195377 0.064208716 0.03192487 0.03142163 0.07878753 0.080101825
-0.09276525 -0.022754915 0.033742975 0.078167364 -0.02647724 -0.036120113 0.037093546 -0.045297615
-0.08325674 0.043525115 0.010692884 -0.008555347 0.11691281 -0.06308959 0.017509563 -0.029348314
-0.05189832 -0.008583679 -0.09174812 0.047283612 -0.0148950685 -0.11169586 -0.023351004 -0.04349003
0.031038765 0.100920506 0.070874095 0.05713247 -0.093994915 -0.06624093 -0.056728505 -0.066491455
0.0062583373 0.06752739 0.051806293 -0.006814409 -0.0059793354 -0.031940233 0.082585834 -0.011310581
-0.05007058 -0.015145118 -0.10639275 0.07759969 0.033360064 -0.06123908 0.069828846 -0.061256547
-0.03648851 -0.04675681 -0.103358634 -0.06341707 -0.00015416283 0.08703643 0.091697484 0.08399183
0.07587968 0.07857196 0.028629126 0.06154293 0.014341733 -0.05914362 -0.07786886 -0.02437675
-0.002404727 0.068629935 -0.030445911 0.07636839 0.092970215 0.078976415 0.024448438 -0.06129034
0.062089816 0.00096110336 -0.08319191 0.016926372 0.09130378 -0.07964518 -0.07562836 -0.019361425
-0.040520944 -0.054141298 0.08224006 0.06955452 -0.041830126 0.054312967 -0.08367196 -0.055906914
0.049307924 0.011223833 -0.058785442 -0.10093863 -0.07682775 -0.07474829 -0.074704535 0.055831198
0.0269741 -0.0038743832 0.050927248 0.054172613 -0.053253863 0.013977085 0.09043399 0.028904531
0.10128212 0.097493045 0.031743355 0.062214077 0.079589404 0.012038263 -0.012524456 0.078507364
-0.049675643 0.010169394 -0.08723498 0.058857266 -0.030091498 -0.006215025 0.058504328 -0.025034936
0.030139755 -0.0934344 0.004985424 -0.084494516 0.07179837 0.023152286 0.045242902 -0.051929533
-0.04543391 -0.06610325 -0.088928245 -0.0056998455 -0.02372415 -0.08817055 0.09288406 0.09444464
-0.05823478 0.060005303 -0.025982743 -0.012366842 0.027650198 -0.09118946 -0.08435045 0.091635704
0.03703388 -0.09048049 -0.049762137 0.026501494 0.0383326 -0.04334654 0.06608999 0.010864065
-0.079777814 0.019220086 -0.03599323 0.06426543 0.08070467 0.049468845 0.038866397 -0.0071303616
0.07566975 0.08928046 0.04713602 0.07724582 -0.071249686 0.07723007 0.051482197 -0.055316396
0.039460238 0.041788947 -0.036349967 -0.07663351 -0.053165406 0.101714395 -0.06535015 0.05733289
0.058284372 -0.041485354 -0.06825534 -0.0308621 -0.029197428 -0.06459166 -0.07194104 -0.01902875
-0.06963588 0.08645063 -0.024241524 -0.09038463 0.037957117 -0.10098045 -0.0022475226 -0.042340197
0.07266318 -0.06496133 0.05700883 0.013961511 -0.04242774 -0.08508969 -0.00562617 0.054881483
0.05864944 0.038187455 0.05604845 -0.088689275 0.034083303 0.06639009 0.031476714 0.046372928
00000000: 36e2 83bd f706 94bd 9ac4 b8bd a1a4 15bc
00000010: 756e b2bd bc2b 5ebc d5c2 aebc e5ec 7cbd
00000020: 7668 293d 6f9d d43d bc31 72bc b52a bdbd
00000030: 344f 6e3d 5f9a 593c 3468 bdbc 47d5 c3bd
00000040: d974 94bd 7464 d73c 5c7d ff3c e5fc 733b
00000050: 2e4f 61bd bd63 bd3d b866 bdbd 38fb 2a3d
00000060: cdfc b2bd 73c9 bfbd f290 dbbd 37d0 493d
00000070: c22e fd3d 15b0 183d 7095 6ebd c2ee b2bd
00000080: 7728 b93d 96ca 26bd f2ae 9cbd aa53 99bd
00000090: 9444 7d3c c2db 47bd c12d 613d 5054 873c
000000a0: 20f6 743d 1de1 c73c 2e5a 183d dc7f 833d
000000b0: a7c3 023d f8b3 003d 5b5b a13d 6d0c a43d
000000c0: b5fb bdbd 8468 babc 1336 0a3d 3616 a03d
000000d0: cce6 d8bc aff2 13bd 67ef 173d fe89 39bd
000000e0: 8282 aabd 6447 323d 3531 2f3c ba2b 0cbc
000000f0: fc6f ef3d 1d35 81bd 3770 8f3c e06b f0bc
00000100: 5593 54bd 8fa2 0cbc 70e6 bbbd 76ac 413d
00000110: 720a 74bc cdc0 e4bd 9b4a bfbc 9a22 32bd
00000120: 0245 fe3c 69af ce3d 7026 913d bd03 6a3d
00000130: 6880 c0bd 53a9 87bd 265c 68bd ac2c 88bd
00000140: bd12 cd3b cd4b 8a3d d632 543d 684b dfbb
00000150: 4dee c3bb c3d3 02bd c322 a93d 0450 39bc
00000160: cf16 4dbd 3b23 78bc 71e4 d9bd 96ec 9e3d
00000170: 90a4 083d d4d5 7abd 6d02 8f3d 25e8 7abd
00000180: fa74 15bd 1284 3fbd b1ad d3bd cfe0 81bd
00000190: c5a6 21b9 2840 b23d e4cb bb3d e903 ac3d
000001a0: ce66 9b3d 56ea a03d a187 ea3c 7014 7c3d
000001b0: 97f9 6a3c 9540 72bd b579 9fbd c0b1 c7bc
000001c0: a098 1dbb da8d 8c3d b469 f9bc 0867 9c3d
000001d0: 2b67 be3d 63be a13d 1748 c83c 940b 7bbd
000001e0: e451 7e3d 8ef2 7b3a 8560 aabd 2da9 8a3c
000001f0: 7afd ba3d 031d a3bd 0be3 9abd da9b 9ebc
00000200: 4af9 25bd 44c3 5dbd 7a6d a83d 9a72 8e3d
00000210: 1156 2bbd 4677 5e3d 345c abbd a6fe 64bd
00000220: 1bf7 493d 2be4 373c 01c9 70bd eab8 cebd
00000230: de57 9dbd a215 99bd b1fe 98bd 41af 643d
00000240: caf8 dc3c 5de9 7dbb 1799 503d 1ae4 5d3d
00000250: b920 5abd 2500 653c 7535 b93d 32c9 ec3c
00000260: 006d cf3d 6faa c73d 5205 023d 30d4 7e3d
00000270: c5ff a23d 223c 453c 6033 4dbc 78c8 a03d
00000280: b078 4bbd 889d 263c 41a8 b2bd 5114 713d
00000290: 7282 f6bc 69a7 cbbb 3ca2 6f3d 1116 cdbc
000002a0: a6e7 f63c 895a bfbd c55c a33b 760b adbd
000002b0: 060b 933d dda9 bd3c 9f50 393d 10b4 54bd
000002c0: e818 3abd 2461 87bd 0320 b6bd c5c5 babb
000002d0: 2659 c2bc c392 b4bd 003a be3d 316c c13d
000002e0: 9887 6ebd 1fc8 753d c3d9 d4bc 4b9e 4abc
000002f0: ab82 e23c 8ac1 babd eebf acbd 80ab bb3d
00000300: d6b0 173d d64d b9bd 62d3 4bbd a919 d93c
00000310: a502 1d3d 248c 31bd 305a 873d 31ff 313c
00000320: 8d62 a3bd 7173 9d3c a36d 13bd 989d 833d
00000330: 7d48 a53d d89f 4a3d 5f32 1f3d cfa5 e9bb
00000340: bef8 9a3d acd8 b63d b311 413d 0e33 9e3d
00000350: 5beb 91bd cd2a 9e3d ffde 523d 7293 62bd
00000360: 0fa1 213d e32a 2b3d b4e3 14bd 08f2 9cbd
00000370: f8c3 59bd a34f d03d 4dd6 85bd e4d5 6a3d
00000380: 98bb 6e3d 8cec 29bd 75c9 8bbd 84d2 fcbc
00000390: 722f efbc a248 84bd d355 93bd 2ee2 9bbc
000003a0: 429d 8ebd 070d b13d 2996 c6bc 941b b9bd
000003b0: ec78 1b3d d7ce cebd 2c4b 13bb ea6c 2dbd
000003c0: 6fd0 943d 720a 85bd 1782 693d d2be 643c
000003d0: b6c8 2dbd 8143 aebd bc5b b8bb 68cb 603d
000003e0: 653a 703d 736a 1c3d 0f93 653d b9a2 b5bd
000003f0: ef9a 0b3d 87f7 873d baed 003d 8af1 3d3d

lstm.bias_ih_l0 f4 [400]
-0.07520866 0.02119236 0.09834157 0.02127504 0.005315411 -0.04920696 -0.01594881 -0.0927849
-0.040810615 0.036914274 0.054494374 -0.08117354 0.058765948 -0.09286813 0.05735616 0.07636092
-0.01554865 -0.021188315 -0.05603096 0.07802341 -0.10077965 0.06055578 -0.05900067 0.02696182
-0.030841194 -0.039947446 -0.041387934 0.09870191 0.052848913 -0.06891362 0.067749895 0.03757729
0.067850575 -0.036307793 -0.029321944 -0.096568815 0.09746459 -0.030066708 -0.09872786 -0.012349214
0.06343871 -0.004924973 -0.083084635 0.022934312 -0.011952395 -0.105522074 0.060426258 -0.039847024
-0.07880424 -0.008320192 0.09884069 0.020750802 -0.097742714 0.044806674 0.0024423997 0.05711934
0.044741683 -9.338602e-05 0.06673654 0.059036627 -0.052373264 0.040085476 -0.066992745 0.059310455
0.008351395 0.06310568 0.024105314 0.084989935 0.060657155 0.08319402 0.08478973 0.013497985
-0.028897237 0.046990167 -0.041516554 -0.100403205 0.09920236 -0.006935801 0.07773225 0.019032137
-0.040426552 0.08128333 0.061125312 0.053838868 0.05070418 -0.048321918 0.06883457 -0.045726705
-0.032008104 0.002710593 -0.04972347 -0.046943355 0.04925805 -0.011067956 0.016595928 -0.022434147
0.040675193 0.041009422 -0.012626511 0.03784263 0.031049937 -0.015155079 -0.11321519 0.026234591
-0.09698526 0.07307239 -0.09664339 0.04654912 0.054652683 0.039328743 -0.062468182 0.052325428
-0.020993644 0.06405109 -0.04253084 0.024016984 0.003126796 -0.05943566 0.046009324 -0.012218176
-0.06539301 -0.06706125 -0.07775839 0.011929451 -0.03350982 -0.018742105 0.033103578 -0.07093004
0.09463403 0.042888626 -0.084831096 0.00092436175 -0.042988192 -0.04272229 0.0016598743 0.052706264
0.039666034 -0.01031773 0.033992726 -0.0034269942 -0.01621919 -0.10561742 -0.100456916 -0.13120402
0.0675411 0.037758272 -0.03410215 -0.025535278 -0.15182185 -0.08334617 -0.0689476 0.034870557
0.05491685 0.023883924 0.0067342357 -0.03284656 0.045860846 0.016296245 -0.1244263 -0.07502664
0.005742301 -0.010516153 -0.06769422 -0.05829145 0.04282354 0.008842623 -0.08402631 -0.024466388
-0.051722687 0.013961005 0.042435758 0.026905905 -0.06062742 -0.14604732 -0.11078786 -0.085866936
0.030840928 0.0077373083 -0.04787445 0.017572032 0.016979458 0.010667436 -0.05527773 -0.02392497
-0.10639787 -0.0046430603 -0.075769715 0.06574285 0.060242902 0.042886563 -0.09279905 -0.05619808
-0.065236844 0.005825032 -0.097467385 0.058993 0.021990823 0.08528392 0.0504957 -0.040820748
-0.084750034 -0.033069205 -0.08287372 -0.03819424 -0.012397138 -0.08081279 -0.108575754 0.02553555
-0.04899411 0.09357743 0.08746843 -0.034272566 0.074048445 -0.07885416 0.1452959 0.08084397
-0.00021888196 -0.021351416 0.056220118 -0.011383229 0.035729215 0.076882035 0.019835226 -0.06133335
0.026025942 -0.042423386 0.0032083383 0.046814233 0.10166627 0.018576518 -0.06847773 -0.009155832
-0.017484477 0.029990654 0.08687945 0.08650728 0.029884515 0.06962179 0.073508635 -0.01902584
0.10476714 0.040750217 -0.016389638 -0.05955367 -0.046988 0.06628708 0.12370446 0.067019716
0.051598698 0.0978216 0.0834012 -0.042341307 -0.020814262 -0.024640735 0.06958193 -0.014419998
00000000: ff06 9abd 9a9b ad3c 4e67 c93d fe48 ae3c
00000010: e62c ae3b 3d8d 49bd 14a7 82bc 0206 bebd
00000020: 0829 27bd 6c33 173d 7e35 5f3d 503e a6bd
00000030: 90b4 703d a531 bebd 4bee 6a3d 1d63 9c3d
00000040: c4bf 7ebc 1e93 adbc b880 65bd bdca 9f3d
00000050: 9065 cebd 5609 783d b0aa 71bd 09df dc3c
00000060: aca6 fcbc ef9f 23bd 6586 29bd 3a24 ca3d
00000070: 1a78 583d 9622 8dbd 75c0 8a3d a5ea 193d
00000080: 3ef5 8a3d 7bb7 14bd 9334 f0bc dfc5 c5bd
00000090: 849b c73d 754e f6bc d531 cabd 5c54 4abc
000000a0: 28ec 813d ab61 a1bb 4728 aabd bde0 bb3c
000000b0: fad3 43bc f51b d8bd 8681 773d a236 23bd
000000c0: 1e64 a1bd 6a51 08bc fd6c ca3d 96fd a93c
000000d0: 552d c8bd 3487 373d ab10 203b f8f5 693d
000000e0: 0e43 373d 3dd8 c3b8 2bad 883d 64d0 713d
000000f0: 5985 56bd ab30 243d 7e33 89bd 85ef 723d
00000100: 4ad4 083c 8d3d 813d 8278 c53c 340f ae3d
00000110: a373 783d a061 aa3d 3da6 ad3d a726 5d3c
00000120: e6b9 ecbc c378 403d 430d 2abd 32a0 cdbd
00000130: 9b2a cb3d b745 e3bb 1632 9f3d 49e9 9b3c
00000140: 5096 25bd e077 a63d 895e 7a3d 2586 5c3d
00000150: 30af 4f3d 34ed 45bd 24f9 8c3d ed4b 3bbd
00000160: ee1a 03bd 34a4 313b d6aa 4bbd ad47 40bd
00000170: cfc2 493d 5f56 35bc 2ff4 873c d1c7 b7bc
00000180: 089b 263d 7ff9 273d 6ddf 4ebc e000 1b3d
00000190: 705c fe3c 024d 78bc 5edd e7bd ede9 d63c
000001a0: 35a0 c6bd faa6 953d f8ec c5bd 4aaa 3e3d
000001b0: 7edb 5f3d 2d17 213d a3de 7fbd 3053 563d
000001c0: ddfa abbc 382d 833d d134 2ebd 44bf c43c
000001d0: efea 4c3b ce72 73bd 4674 3c3d bf2e 48bc
000001e0: c5ec 85bd 6957 89bd ca3f 9fbd be73 433c
000001f0: 9841 09bd 0b89 99bc 9e97 073d c543 91bd
00000200: 7ccf c13d fcab 2f3d edbb adbd de50 723a
00000210: 6314 30bd 91fd 2ebd 2490 d93a 86e2 573d
00000220: da78 223d b20b 29bc f53b 0b3d 6c97 60bb
00000230: 1bde 84bc f24d d8bd 5bbc cdbd 595a 06be
00000240: fd52 8a3d 6ba8 1a3d b2ae 0bbd 5c2f d1bc
00000250: 3077 1bbe 66b1 aabd 6634 8dbd 6ed4 0e3d
00000260: 7ef0 603d 38a8 c33c ddaa dc3b 1d8a 06bd
00000270: 95d8 3b3d b47f 853c 37d3 febd 91a7 99bd
00000280: e929 bc3b f14b 2cbc 44a3 8abd 04c3 6ebd
00000290: bc67 2f3d a6e0 103c fc15 acbd bc6d c8bc
000002a0: 2bdb 53bd b3bc 643c 1ed1 2d3d c669 dc3c
000002b0: 7554 78bd 6e8d 15be bfe4 e2bd 01db afbd
000002c0: 1da6 fc3c 3f89 fd3b 0018 44bd 39f3 8f3c
000002d0: 8118 8b3c 78c6 2e3c e76a 62bd 4cfe c3bc
000002e0: 20e7 d9bd d024 98bb 272d 9bbd 30a4 863d
000002f0: 43c1 763d d2a9 2f3d 6e0d bebd f52f 66bd
00000300: e59a 85bd e9df be3b fb9c c7bd a5a2 713d
00000310: 1926 b43c 56a9 ae3d 94d4 4e3d a833 27bd
00000320: 6d91 adbd 9373 07bd b2b9 a9bd 9071 1cbd
00000330: 5e1d 4bbc 2d81 a5bd f75c debd ee2f d13c
00000340: 0cae 48bd 86a5 bf3d a622 b33d 6461 0cbd
00000350: b6a6 973d 4a7e a1bd 73c8 143e 8691 a53d
00000360: ae83 65b9 2ae9 aebc 1147 663d b980 3abc
00000370: cc58 123d 5474 9d3d 7c7d a23c ae38 7bbd
00000380: 5b34 d53c 25c4 2dbd fc42 523b 48c0 3f3d
00000390: 6836 d03d c82d 983c 0d3e 8cbd 5802 16bc
000003a0: 9b3b 8fbc f6ae f53c daed b13d bb2a b13d
000003b0: 5fd0 f43c de95 8e3d b28b 963d 14dc 9bbc
000003c0: 2790 d63d b3e9 263d 9043 86bc 8dee 73bd
000003d0: 7d76 40bd 85c1 873d c458 fd3d a241 893d
000003e0: 2859 533d b156 c83d 40ce aa3d 146e 2dbd
000003f0: ac82 aabc 5edb c9bc f980 8e3d db41 6cbc

lstm.bias_hh_l0 f4 [400]
0.04598489 -0.07662366 -0.05308674 0.024635103 -0.03475963 -0.034108166 0.043039896 -0.021915784
-0.00042141558 0.10593841 0.017134767 0.035945345 0.021161713 -0.031873494 0.11038643 0.018672667
0.041333713 -0.050531328 -0.056484018 -0.00031296388 -0.045802504 0.019920073 0.025004158 -0.092164405
-0.060288504 0.08696019 0.06097567 0.03180131 -0.07101839 -0.0014226598 -0.013378028 0.09144256
-0.07332774 0.025983965 -0.020910712 -0.09933936 -0.0018512594 0.03993678 0.020156372 0.0854256
0.06601148 -0.023053428 -0.00638245 0.10433758 0.041392565 -0.087059796 0.003712955 0.069668174
-0.04452154 -0.060543824 -0.010861286 0.02240335 0.09094725 0.13048153 -0.090272225 -0.06965907
0.087342605 0.032128196 0.09544838 -0.094455704 0.107651375 0.099545404 0.07948767 0.08283198
0.014838083 -0.10482542 0.022778198 -0.073029235 0.04940888 0.073947445 0.078950904 0.008527358
0.031453073 0.034096204 -0.06794688 -0.035986412 0.026263662 -0.003380173 0.083077356 -0.088063225
-0.08914697 -0.060652934 0.0056845876 0.04495857 0.007736998 -0.03382983 -0.005754378 0.051764
-0.078749076 0.027579209 0.033005074 0.05136727 0.035763633 0.08999661 -0.029620552 -0.056215927
-0.060881242 0.0905827 -0.015014624 0.07254329 0.054812223 -0.09064195 -0.060957424 -0.08273109
-0.17374913 -0.0837388 0.011610065 -0.111861914 0.02014183 -0.0937022 0.019790154 -0.109002754
0.035215978 0.05406098 -0.04338315 -0.02311589 -0.05394453 -0.03840196 -0.07047185 0.11056737
0.050114498 0.026009915 -0.04049193 -0.07162959 -0.09146184 0.046363346 0.004980718 -0.10010738
0.10454841 0.053991407 0.05824356 -0.008051764 0.060103092 -0.007485895 0.11526978 0.023982748
0.04066339 0.026136326 -0.07913842 0.02742563 0.08038866 0.004807 0.06781339 -0.001230465
-0.092052884 -0.06315803 0.023530586 -0.09909643 -0.048019953 -0.013393446 -0.03618411 0.018030297
-0.0011549906 0.032317765 -0.0868125 -0.066728525 -0.092817076 -0.057648275 -0.16555966 -0.10915183
-0.10492179 0.030469723 -0.112431854 -0.0669469 0.037213042 -0.059365716 0.028447744 -0.018689075
-0.13381316 -0.12569973 0.005090436 0.0342579 -0.09784161 -0.051462844 -0.050601892 0.021026013
-0.053652313 -0.019161297 -0.057242148 0.093253165 -0.053066056 -0.009722141 -0.08418678 -0.058394793
0.02032184 0.09002764 0.014726815 -0.09096365 0.010778976 0.09197741 -0.092971876 -0.050126653
0.07260818 0.020909697 0.020143129 -0.08453455 -0.09743241 0.039525695 -0.016440734 -0.06423152
0.009589291 0.008937406 0.08054415 -0.04772117 0.033914115 -0.06315397 0.047597427 0.08685432
-0.021909403 0.09166542 0.07164249 -0.035300963 -0.004399625 -0.04550235 0.11311877 0.09672475
-0.06964445 0.052906077 0.06792838 -0.044137258 -0.043387968 0.09053519 -0.05083032 0.011731762
0.041803837 -0.04690252 0.023341829 0.057748154 -0.055155214 -0.00588708 0.06576591 0.0694876
-0.06289692 0.0011689772 0.017446572 0.015309377 0.09023663 -0.028508948 -0.014316063 -0.10850714
0.06809666 -0.012179102 0.039448492 -0.040517554 -0.041473925 -0.020090226 0.09504686 0.043271318
-0.085559696 -0.07327562 -0.08583763 0.0019746176 0.08809294 -0.058165945 0.014758298 -0.033874363
00000000: a75a 3c3d deec 9cbd 7b71 59bd 8ecf c93c
00000010: 1d60 0ebd 01b5 0bbd 9a4a 303d bb88 b3bc
00000020: 71f1 dcb9 3df6 d83d 365e 8c3c 6d3b 133d
00000030: 545b ad3c c88d 02bd 4812 e23d 6cf7 983c
00000040: 8a4d 293d f0f9 4ebd c95b 67bd 4d15 a4b9
00000050: 689b 3bbd 6c2f a33c 85d5 cc3c b1c0 bcbd
00000060: 14f1 76bd 2f18 b23d a0c1 793d 1742 023d
00000070: 1772 91bd 8b78 baba 842f 5bbc 3d46 bb3d
00000080: db2c 96bd 53dc d43c f14c abbc 6f72 cbbd
00000090: f5a5 f2ba c094 233d fa1e a53c 9ef3 ae3d
000000a0: 0731 873d 8bda bcbc df23 d1bb f1ae d53d
000000b0: 408b 293d 684c b2bd 0c55 733b 30ae 8e3d
000000c0: 385c 36bd cdfc 77bd 89f3 31bc 3b87 b73c
000000d0: 8d42 ba3d f39c 053e a5e0 b8bd 6aa9 8ebd
000000e0: aee0 b23d db98 033d 717a c33d fe71 c1bd
000000f0: 5378 dc3d 76de cb3d 6eca a23d d0a3 a93d
00000100: 6e1b 733c b6ae d6bd 5899 ba3c 5a90 95bd
00000110: f760 4a3d c271 973d 03b1 a13d 55b6 0b3c
00000120: f0d4 003d 76a8 0b3d bc27 8bbd 7d66 13bd
00000130: e426 d73c e485 5dbb 7624 aa3d 7e5a b4bd
00000140: b092 b6bd 366f 78bd c745 ba3b 7a26 383d
00000150: a586 fd3b 2691 0abd 398f bcbb 7d06 543d
00000160: 3247 a1bd cbed e13c 5430 073d 7d66 523d
00000170: e37c 123d 2550 b83d cda6 f2bc ac42 66bd
00000180: 9c5e 79bd 6c83 b93d e6ff 75bc 9491 943d
00000190: c882 603d 7da2 b9bd 7eae 79bd eb6e a9bd
000001a0: 4beb 31be 3f7f abbd 2438 3e3c dc17 e5bd
000001b0: 7b00 a53c f0e6 bfbd f61e a23c d63c dfbd
000001c0: a13e 103d 0c6f 5d3d 88b2 31bd 895d bdbc
000001d0: f1f4 5cbd 604b 1dbd 8c53 90bd 2571 e23d
000001e0: dc44 4d3d bf12 d53c deda 25bd 89b2 92bd
000001f0: 5850 bbbd 7ee7 3d3d 4a35 a33b 1905 cdbd
00000200: 7a1d d63d 1826 5d3d cd90 6e3d 8ceb 03bc
00000210: a92e 763d 3d4c f5bb 9012 ec3d 7877 c43c
00000220: a88e 263d d91b d63c 5313 a2bd b7ab e03c
00000230: cfa2 a43d 0a84 9d3b bfe1 8a3d 8e47 a1ba
00000240: 3986 bcbd ff58 81bd 37c3 c03c 12f3 cabd
00000250: 92b0 44bd 2f70 5bbc ca35 14bd 46b4 933c
00000260: 0e63 97ba a25f 043d c1ca b1bd f7a8 88bd
00000270: e116 bebd 9920 6cbd 7988 29be ff8a dfbd
00000280: 3ce1 d6bd a49b f93c ac42 e6bd 751b 89bd
00000290: b46c 183d 7729 73bd 3e0b e93c d519 99bc
000002a0: 5106 09be 6eb7 00be accd a63b 0352 0c3d
000002b0: 2f61 c8bd b4ca 52bd ee43 4fbd bf3e ac3c
000002c0: 87c2 5bbd 27f8 9cbc be76 6abd 84fb be3d
000002d0: cb5b 59bd 9d49 1fbc 1e6a acbd 612f 6fbd
000002e0: fd79 a63c 6960 b83d bd48 713c 264b babd
000002f0: 4d9a 303c a75e bc3d 0a68 bebd 9b51 4dbd
00000300: 99b3 943d d04a ab3c 3403 a53c 7320 adbd
00000310: a58a c7bd b2e5 213d b8ae 86bc d18b 83bd
00000320: 671c 1d3c 336e 123c 55f4 a43d 4677 43bd
00000330: 87e9 0a3d de56 81bd 85f5 423d ade0 b13d
00000340: 597b b3bc 14bb bb3d 4cb9 923d be97 10bd
00000350: bb2a 90bb ac60 3abd d0aa e73d a017 c63d
00000360: c0a1 8ebd 0bb4 583d 091e 8b3d 45c9 34bd
00000370: 95b7 31bd 846a b93d 7433 50bd 9436 403c
00000380: 803a 2b3d db1c 40bd 5d37 bf3c 5489 6c3d
00000390: 6fea 61bd 68e8 c0bb 47b0 863d 844f 8e3d
000003a0: 1ad0 80bd 5e38 993a 1dec 8e3c 2ed4 7a3c
000003b0: fbcd b83d 998b e9bc ec8d 6abc fe38 debd
000003c0: 4376 8b3d db8a 47bc be94 213d bcf5 25bd
000003d0: 90e0 29bd 4294 a4bc eea7 c23d 443d 313d
000003e0: ec39 afbd 8711 96bd a4cb afbd 9668 013b
000003f0: 126a b43d 6a3f 6ebd cacc 713c d8bf 0abd

hidden_to_y.weight f4 [1, 100]
0.06909488 0.007312139 -0.010548379 -0.01030036 0.060042005 -0.0052698795 0.004118724 0.07877012
0.032225475 0.0066410494 -0.0037310338 -0.05805599 -0.046625003 0.049499687 0.011756766 0.0018966637
0.078435965 -0.010538542 -0.03054124 0.060303755 0.0630306 0.012572706 -0.0008828655 0.074111514
0.01905481 0.0037001756 0.020631876 0.044841327 -0.009949341 -0.001931583 0.0111044785 -0.0015953642
0.060186643 0.044119634 -0.05466685 -0.03392502 0.064545244 -0.043418083 0.003160625 -0.0051924107
-0.0072361287 -0.05613387 -0.0057427953 -0.036842506 0.034457117 0.019879628 0.021470554 0.064470194
0.06910065 0.05001841 -0.041088365 0.045533195 -0.06432618 -0.04278783 -0.0797037 0.03437859
-0.010475431 0.027633334 -0.05973736 -0.0007438841 -0.0060516912 -0.056846637 0.025644543 0.033782735
-0.015451564 0.044984214 -0.06875441 0.0793032 0.05438778 -0.03533559 -0.00704525 0.07408596
-0.08313187 0.07937178 0.0016392189 -0.06508155 -0.069433115 0.040479455 -0.047000077 -0.00046062097
0.041224115 -0.03396026 -0.070677586 -0.05445903 -0.08176271 0.03534334 0.0843245 0.07245494
-0.06012598 -0.0752865 2.7777422e-05 0.0070720236 0.04679537 0.08402145 -0.08257801 -0.051242854
-0.0033284468 0.0038546606 -0.0002435603 -0.03216387
00000000: 9e81 8d3d ab9a ef3b 1cd3 2cbc d7c2 28bc
00000010: 9bee 753d f4ae acbb 5cf6 863b 3b52 a13d
00000020: dcfe 033d 299d d93b 5c84 74bb 1ecc 6dbd
00000030: dcf9 3ebd 2fc0 4a3d 739f 403c 7999 f83a
00000040: 09a3 a03d d9a9 2cbc 9f31 fabc 1201 773d
00000050: 3016 813d c0fd 4d3c 1a70 67ba c7c7 973d
00000060: d518 9c3c a57e 723b 2e04 a93c 8aab 373d
00000070: 9002 23bc 2c2d fdba 8fef 353c 8a1b d1ba
00000080: 4586 763d cab6 343d 59ea 5fbd f6f4 0abd
00000090: 4c30 843d 29d7 31bd 7d22 4f3b 1925 aabb
000000a0: 0c1d edbb a1ec 65bd 0f2e bcbb 2be8 16bd
000000b0: e822 0d3d 9ada a23c 04e3 af3c f308 843d
000000c0: a484 8d3d 1be0 4c3d 464c 28bd 0481 3a3d
000000d0: 72bd 83bd 4b42 2fbd b23b a3bd 90d0 0c3d
000000e0: 24a1 2bbc 4d5f e23c 29af 74bd 3801 43ba
000000f0: 444d c6bb 05d8 68bd 8114 d23c c45f 0a3d
00000100: 8f28 7dbc 5e41 383d 1dcf 8cbd b769 a23d
00000110: b9c5 5e3d 0dbc 10bd d7db e6bb 61ba 973d
00000120: 0b41 aabd ac8d a23d 0fdb d63a 7a49 85bd
00000130: f332 8ebd c9cd 253d 2783 40bd 807f f1b9
00000140: 9eda 283d ea19 0bbd 69bf 90bd 6f10 5fbd
00000150: 3573 a7bd 2ec4 103d 53b2 ac3d 4163 943d
00000160: a946 76bd cf2f 9abd 8f03 e937 6fbc e73b
00000170: 80ac 3f3d 7013 ac3d a91e a9bd 07e4 51bd
00000180: 1222 5abb 799e 7c3b 3864 7fb9 43be 03bd
