py/models/gmd_LSTM.pt (torch_old, 187059 bytes, 5 tensors)

lstm.weight_ih_l0 f4 [400, 14]
00000000: c7ef 03be 0502 68bd c29d 8ebd a55d 42bc
00000010: 71c1 87bd 1419 f8bd 7379 25be 24ae 2f3c
00000020: c2e0 0abd 6cfc c5bd c1e8 8ebb 7a40 3ebd
00000030: 14ca bf3b 9766 833d 6d58 48bd 71a2 843d
00000040: 7c8b 7bbd daed fd3c 6ab4 57bd cc52 423d
00000050: 4807 a43c b659 21bd 1bb6 b7bc 8cae 37bc
00000060: 882d d53d d629 873d ac67 2d3c e00c 9fbb
00000070: 1d2a b53c 15f6 b4bc af41 2b3d 91e0 96bb
00000080: 81fa a23d 712b 12bd 8a0d b5bc aa52 d33c
00000090: b53b 743d 87a8 01bd 6612 c63d e3d8 a0bd
000000a0: 55fd 07bc bb38 ccbd 20ec 04bd 66b3 34bd
000000b0: 3edb 1ebb 3b9b 3a3d 847b 50bd 00f0 01be
000000c0: 61f7 e03d d429 a13d 36d5 4b3d d358 cd3d
000000d0: 7852 813c 0c18 1a3d aefd 983d f80d a5bc
000000e0: d6d7 7fbd 8c79 1ebd 21f8 1ebc 7fb3 043b
000000f0: 3786 543b 635a 6d3d 274b c13c 6995 a2bd
00000100: 0c9a f93b 5428 acbb b275 ae3d cd50 a9bc
00000110: e74b b5bc 18b6 83bc 5dad 07bd 6b6f 48bb
00000120: 1aea 36bd 9ef1 a33d 1ac1 6c3d 63ff 3fbd
00000130: f1e0 87bd 4a9f 653b 09e9 e43d 9124 04be
00000140: 9e9b 9f39 651a a93d 7dd0 b5bc 986f 36bc
00000150: 6989 f6bd 14ee 5e3d bea5 19be e41c 3bbe
00000160: 6acd 1bbe 1ebe a63c 2824 9abd 6f9c d8bc
00000170: 6927 6ebe 6ddf abbd f228 813c d29f d0bd
00000180: 865b 60bd a21f 343d 0db1 c63d 5e4f 74bd
00000190: d3db 493d cd6b 7b3d 654a 47bc 5b23 6bbd
000001a0: 9385 a13d 3c67 ee3d 2fcb 963c ff11 72bc
000001b0: 4fee f9bd c226 01be 66d0 eabc d027 1dbd
000001c0: 9c2b c4bc 2114 21bc 6f42 ba3d ed1f c23d
000001d0: 012c 19bc 6cfd f5bc 1def 463d 8f84 02bc
000001e0: bbfd c1bd 2c73 0e3d 7ef5 c83d f2bd a0bd
000001f0: 41eb 95bc f4a7 b13c 9501 bdbd 00d8 c7bd
00000200: 416a 813d a5ee 38bd 5c13 703d 76a3 253c
00000210: 5494 ef3c 5599 86bd 0d5d 74bc 9efd 923d
00000220: 4d01 123d eea7 2dbd 210f fabb 71cc 9c3d
00000230: dedd 16bd bfc9 4c3d 42ae 84bd 12bf ccbc
00000240: 2739 393d abdf e7bd e8d4 8dbc d8c5 bd3d
00000250: f250 7d3c 9523 5cbd 81d2 37bd d679 673d
00000260: 01ea 9d3c 17d4 8a3d 04f6 a2bd 9e0f 7a3c
00000270: 9165 cc3b 6cf7 873b 9c39 923d 59bb 5e3d
00000280: 3c35 673d 8d33 2a3d a1b0 293d 8523 0ebd
00000290: ee0a eebd d76a dbbd b326 a6bd aa98 84bd
000002a0: 2395 163d f55f b23c 634b 36bd 5b5f 9fbd
000002b0: 58aa c93d a2ef 993d d329 413d 3ec0 ca3d
000002c0: 2108 5abd f536 aabd b850 a4bd ebda abbc
000002d0: 95d4 cebd d120 a23d f7c8 d4bc a0b4 c33d
000002e0: baae 4a3d 910b 893c 7398 043e 30b5 183e
000002f0: d905 c83d a49f fa3b b1ba 0c3e 184e 0cbe
00000300: 92d6 edbc 6cf4 89bd 8b41 60bb bf0f 8f3d
00000310: 3e02 aebc acd8 e0bc bc96 adbd ce94 a03d
00000320: a9b0 84bc 5a53 d13d d01f 36bd a4fa a83d
00000330: aba4 593d 96f2 c73d f335 3b3c 6366 39bb
00000340: 5b87 b7bd 806e 9c3a 32d7 8d3d 9413 0a3c
00000350: 5a19 623d 9ee4 6f3d 0694 e9bd 9484 debd
00000360: cf96 83bd 25d8 473c bdbc 3f3c 99a6 613d
00000370: 1faf 633c 0310 eebc a30b 4c3d 59b5 8a3d
00000380: d3b9 54bd 7df3 6b3d 9142 5e3d 1c86 bc3d
00000390: 6253 bcbd 8d6e fdbd 6d37 4e3d 3bbd b0bd
000003a0: a7c9 2abd 92fe 8c3c 3121 a53d bb79 7ebd
000003b0: 3401 c73d 584a 9fbc b746 933d 6bb4 8ebd
000003c0: 24a9 b9bd 188f 40bc 541c bb3a 9015 0fbd
000003d0: 280d 79bc d9e5 25bd 9614 acbc 5c7f 8e3d
000003e0: ce70 1cbc a332 eebd 2536 9cba ed0a 7bbd
000003f0: de45 aa3d 6051 123d c278 343b 976e 823c
-0.12884437 -0.05664255 -0.06963684 -0.011863147 -0.06628693 -0.12114158 -0.1615961 0.010722671
-0.033905752 -0.09667286 -0.0043612425 -0.04644821 0.005852947 0.06416052 -0.048912454 0.06476296
-0.06141232 0.030997206 -0.05266229 0.047442243 0.020023003 -0.039392196 -0.022425702 -0.011211049
0.10409075 0.065997764 0.010583799 -0.0048538297 0.022114808 -0.022089997 0.041810688 -0.004604407
0.07957936 -0.03568596 -0.022101182 0.025796253 0.059627254 -0.03165486 0.09671478 -0.07853868
-0.008300145 -0.09971758 -0.03245175 -0.0441164 -0.0024239565 0.045558196 -0.050899044 -0.12689209
0.10984684 0.07869306 0.04976388 0.100267075 0.015786394 0.03762059 0.074702606 -0.020148262
-0.062461697 -0.038690135 -0.009702713 0.002024859 0.003242863 0.057947528 0.023595406 -0.07938654
0.007617241 -0.005253831 0.08518542 -0.020668412 -0.02213092 -0.01607804 -0.033124316 -0.0030583988
-0.04465685 0.08005069 0.057801344 -0.046874415 -0.06634701 0.003503757 0.111772604 -0.12904574
0.00030442787 0.082569875 -0.022194142 -0.011135004 -0.12037928 0.054426268 -0.15004632 -0.1827274
-0.15215078 0.020354327 -0.075264275 -0.02644178 -0.23257221 -0.083922245 0.015766595 -0.10186733
-0.054774784 0.04397548 0.097017385 -0.059646003 0.049281906 0.061382104 -0.012163733 -0.057406764
0.078868054 0.11640784 0.018407432 -0.014774798 -0.12203657 -0.12612441 -0.028663825 -0.038368046
-0.023946576 -0.009831459 0.090947025 0.094787456 -0.00934887 -0.030028068 0.04856788 -0.007966175
-0.09472223 0.034777805 0.09812449 -0.07848729 -0.018300654 0.021686532 -0.092288174 -0.097579956
0.063190944 -0.045149464 0.058612213 0.010109773 0.029245533 -0.065722145 -0.014914763 0.0717728
0.03564577 -0.04239648 -0.007631198 0.076561816 -0.036832683 0.049997088 -0.064785495 -0.024993453
0.04522052 -0.11321958 -0.017313436 0.09266251 0.015461193 -0.05374487 -0.044878487 0.056512676
0.01927662 0.06778734 -0.0795708 0.0152625125 0.0062376936 0.004149368 0.07139894 0.054377887
0.056447253 0.04155307 0.041428212 -0.034701843 -0.116231784 -0.107137375 -0.0811285 -0.06474431
0.03676332 0.021774272 -0.044505488 -0.077818595 0.098469436 0.075164095 0.047159027 0.098999485
-0.05323041 -0.083112635 -0.080232084 -0.020978412 -0.100991406 0.079164155 -0.025974734 0.09555936
0.04948304 0.016729148 0.1294878 0.14912868 0.0976674 0.007648425 0.13743092 -0.13701665
-0.02903298 -0.06736073 -0.0034218754 0.06985425 -0.021241304 -0.027447067 -0.08476016 0.07840882
-0.01619752 0.10220976 -0.044463933 0.08250931 0.053135555 0.097630665 0.011426437 -0.0028289787
-0.08961364 0.0011934787 0.06925811 0.008427519 0.05519996 0.058567636 -0.11405186 -0.10865131
-0.06425249 0.012197529 0.011702714 0.05509052 0.013896733 -0.02906037 0.049815785 0.067728706
-0.05193503 0.057605255 0.0542627 0.09205267 -0.091955915 -0.123746015 0.050345827 -0.08629843
-0.041696217 0.017211232 0.080629714 -0.06212781 0.09717026 -0.01944463 0.07191222 -0.06968006
-0.09065464 -0.011752866 0.001427541 -0.034932673 -0.015200891 -0.040502403 -0.02100591 0.069578856
-0.009548379 -0.11630752 -0.0011917992 -0.061289717 0.08314107 0.035722136 0.0027537798 0.015921874

lstm.weight_hh_l0 f4 [400, 100]
00000000: 761b e4bc cc59 cebd 236f b0bd 85d2 e63c
00000010: eb0e 56bd 25cd 0e3c 78d4 15bc 518f b7bc
00000020: f0dc 83bd c80c 803d 6cc7 1bbd 44ad c5bd
00000030: 1f93 333d cc66 71bb 7af6 febc fc0e aebd
00000040: 8797 dbbc 6dd4 dc3d 8da5 bd3d fe6c f23c
00000050: 6ba1 86bd 9a9b ba3c cb25 b3bd 30c4 df3d
00000060: 59cd a0bd 7439 dcbd d8b7 cbbd 76a1 5a3d
00000070: 6897 9e3d c38d fdbb 46bc 95bd db6e 10be
00000080: dad9 233e d111 1dbc 4255 69bd 17be 75bd
00000090: 8417 bf3c fdc1 98bd 3c73 bc3d d5f8 093e
000000a0: 268b e438 3a29 81bc 3690 c83c 400e fe3d
000000b0: a998 0a3d ac6f 063d b338 b73d ecf6 3a3e
000000c0: 9566 c3ba de5f a1bd ae40 eb3d 2ade 213e
000000d0: 7194 35bd fd16 b6bb bcee 363d 628c 33bd
000000e0: 9ff0 1dbd 92aa 053e e583 953d 88ee 7cbd
000000f0: 08fb ce3d cb49 1dbe ae95 e43d 0d21 d7bd
00000100: 3020 57bd 42d2 033d 9785 02be 2e39 fe3d
00000110: 8971 6c3d 675d a2bc 58be ccbd 71ac c0bd
00000120: 31a1 a83d 3d96 6a3c b21d af3d b083 163e
00000130: 6dbe 32be 2979 9dbd 5b3c 86bd db44 c1bd
00000140: cc76 a73d bd81 0e3d 534c 1bbd 010e 09bd
00000150: d7cf 4abd 0b83 81bc b9bc 133e 975f 023c
00000160: bbbc cdbc b848 e73b de73 5bbd 798b 813d
00000170: 9211 be3c ef50 11be 1501 1c3d afcf 18bd
00000180: 5419 cd3c 1d6b d0bd 624e 95bc 6507 e1bd
00000190: 516e 8abc 013e b63d c97e 813d bfd9 a83d
000001a0: 7f8e aa3d 97fa 9d3d 1d62 de3c 4291 7d3d
000001b0: e448 043d 5882 7cbd 8d28 a0bd d00a eabc
000001c0: c46e 0c3a eeea 853d 7e96 f7bc b66f 9d3d
000001d0: 4175 793d e80d 793d b458 703c 6eb5 7abd
000001e0: 35fb 7e3d bcd4 c23c 55f9 abbd d3d2 3abb
000001f0: 0f11 bc3d c233 a7bd a790 9bbd 24b5 8bbc
00000200: d19f 87bc 3d70 67bd 2a78 a93d e41e c73d
00000210: 42ee 9dbd 0ffa 613d 07ba b1bd 96dc 90bd
00000220: a9c4 aa3c 479c 413d 30ab 77bd 02e1 cbbd
00000230: 7d8b 32bd ac4a a4bd 03ef 99bd 2266 963c
00000240: bbbf e63c 807a a1bb b52a 853d c1b3 073d
00000250: 06dc 91bd e992 323c ff53 9c3d 76b7 503c
00000260: 7a8f b73d af34 c93d 5f77 123c 028a 853d
00000270: 2042 b13d 1613 8dbb 9c32 cdbc b504 a03d
00000280: 6cf3 7abd f337 fa3c b07e d7bd 1096 ab3d
00000290: 8732 efbc 3865 aebb 87f5 703d c482 33bd
000002a0: e198 123c 99a4 e3bd 0255 993c c667 73bd
000002b0: cff8 bf3d 9387 323d bce5 333d cf22 98bd
000002c0: 49cc eebc cb11 c2bc 03df b3bd 2e63 9dbb
000002d0: da7f a6bc 8d19 b4bd e800 e23d 5b55 f23d
000002e0: 941f 77bd b148 7a3d 8a67 37bd 06b5 37bc
000002f0: 043b f53c 3efb bbbd fecc aebd 3b18 b23d
00000300: d39f 1a3d b3de 92bd 4429 4ebd c415 c73c
00000310: b12c a23c 14b1 a2bc 494f 403d cb0c 3e3c
00000320: ebfd 91bd c812 403c 7d24 f6ba 14d4 8d3d
00000330: d0ff d53d b307 5c3d f36e 0a3d 5051 cfbc
00000340: ecdd 9f3d dca5 a43d 8265 853c 7f04 9c3d
00000350: d797 6bbd c639 c23d 42e5 6d3d 51e7 fdbd
00000360: e27d 5d3c 1827 083d bcc2 2abc fc82 38bd
00000370: 77bf 35bd 1712 cc3d fd09 86bd 6c53 593d
00000380: 94d5 983d c474 20bd 4261 e8bd 3344 26bc
00000390: b8f1 31bd c694 8abd 2183 c5bd b1dc b4bc
000003a0: e8d4 a9bd 95b3 aa3d a4a5 0bbd d184 9fbd
000003b0: 66e5 c23c 7bbf cdbd d59a c33b 2342 62bd
000003c0: 52c7 843d 526d 6bbd ef53 803d 58a6 a6bc
000003d0: 956f 43bd 9244 b6bd 09c4 0a3c 3e31 2a3d
000003e0: 3d53 673d 7000 ed3c 774c 183d fb2d babd
000003f0: 9ec6 3c3d 6afb 993d 1404 cd3c 456f 473d
-0.027845126 -0.10075721 -0.08614948 0.028176555 -0.05226032 0.008715902 -0.009144895 -0.022407206
-0.06438625 0.06252438 -0.03803198 -0.096521884 0.043841477 -0.0036834953 -0.031123389 -0.08498952
-0.026805652 0.107827045 0.09260092 0.029592987 -0.06573757 0.022779275 -0.08747443 0.10926092
-0.07851667 -0.10753146 -0.09947175 0.053376637 0.07743722 -0.0077378466 -0.07311301 -0.14104788
0.16001073 -0.009586767 -0.056966074 -0.059995737 0.023326643 -0.07458875 0.09201667 0.13473828
0.000108978056 -0.015766729 0.024482828 0.12405062 0.033836994 0.032821342 0.089463614 0.18258256
-0.0014907891 -0.07879613 0.11486946 0.15807405 -0.044331018 -0.0055569396 0.04466127 -0.04383505
-0.038559552 0.13053349 0.073005475 -0.06175092 0.10106474 -0.15360181 0.11161362 -0.10504351
-0.05252093 0.03218294 -0.12746273 0.1241325 0.057725463 -0.019819928 -0.09997243 -0.094078906
0.0823387 0.014318046 0.08550586 0.14698672 -0.17455454 -0.07689125 -0.06554481 -0.09436961
0.081769556 0.034791697 -0.037914585 -0.03346062 -0.049514618 -0.015809556 0.1442746 0.007957361
-0.025114408 0.0070582293 -0.053577296 0.063254304 0.023201738 -0.1419103 0.03808697 -0.037307438
0.025036491 -0.1017668 -0.018225852 -0.109877385 -0.016898306 0.08898545 0.063230105 0.08244657
0.0832796 0.07713812 0.027146393 0.061906107 0.032296076 -0.061647743 -0.078202344 -0.028569609
0.00053570815 0.0653895 -0.030223127 0.07687323 0.060902838 0.060804278 0.014669586 -0.06120818
0.06225129 0.02378308 -0.08397166 -0.0028507009 0.09182941 -0.08164169 -0.075959496 -0.017054148
-0.016555699 -0.056503523 0.082748726 0.09722689 -0.0771146 0.055170115 -0.0867806 -0.070733234
0.020845728 0.04726818 -0.06046599 -0.09955026 -0.043590058 -0.08022055 -0.07516291 0.018359248
0.028167596 -0.004927933 0.06502286 0.03313041 -0.07122044 0.010899284 0.076332085 0.012739053
0.08962913 0.09824502 0.008939593 0.065204635 0.086551905 -0.0043052537 -0.025048546 0.07813398
-0.0612673 0.030544257 -0.105222106 0.083782315 -0.029198898 -0.005322125 0.058827903 -0.04382588
0.008947582 -0.11115379 0.018717293 -0.059425138 0.09373628 0.043586325 0.043920264 -0.07428514
-0.029150145 -0.023690125 -0.087827705 -0.004803083 -0.020324636 -0.08793936 0.11035329 0.118326865
-0.06033285 0.06110448 -0.044776477 -0.011212593 0.029935367 -0.0917878 -0.08535193 0.08696028
0.037750077 -0.07171383 -0.050332323 0.02430237 0.019796701 -0.019859828 0.046950612 0.01159973
-0.07128509 0.011723228 -0.0018779185 0.06925216 0.10449183 0.05371828 0.033797216 -0.025307328
0.07806 0.08039448 0.016283754 0.07618045 -0.057517853 0.09483676 0.058079965 -0.12397636
0.013518782 0.033240408 -0.010422405 -0.04504679 -0.04437205 0.09964388 -0.06544874 0.053058073
0.07462612 -0.039173856 -0.113466755 -0.010148096 -0.04344341 -0.067666575 -0.096441515 -0.02207789
-0.08292562 0.08335034 -0.034093514 -0.077890046 0.023791026 -0.100462876 0.005969385 -0.055238854
0.0648333 -0.057477303 0.06266009 -0.02034299 -0.047713835 -0.088997975 0.00846959 0.041550867
0.056475867 0.028930873 0.037182298 -0.09090801 0.046087854 0.075186566 0.025026359 0.0486901

lstm.bias_ih_l0 f4 [400]
00000000: de35 14be 7f55 133d 4145 c53d 9864 883c
00000010: 80e0 483c ea3f 64bc a55c eabc 65a3 ebbd
00000020: d59f 6ebd 4b10 493c 8019 f23c 67aa b4bd
00000030: d36a 5b3d af70 e9bd 279f 09bd d5ad 0a3e
00000040: eff4 813c 8392 73bd b378 78bd fbe0 903d
00000050: d75a 02be 48f7 883d 54d9 66bd d926 0d3d
00000060: 4857 31bd e421 fbbc 2cc4 4dbd 9ddb 193d
00000070: 1fb8 f83c 45af 40bc ef21 573d 237f bf3d
00000080: 5931 553d 5ee4 97bd baae 09bd 86e2 90bd
00000090: c9de 743d 36e5 90bd bea0 69bd d68f 07bd
000000a0: 039c 483d 1cd5 d13c 1fee eabd 5543 7c3c
000000b0: 4e9d efbc 710f eabd 2eda ad3c 48c2 43bb
000000c0: f6a8 92bd 0c23 20bd 600f 793d ddb5 8fbc
000000d0: 0ac0 13be acb3 513c 5fcd c4bc 86ba 9a3d
000000e0: 9c62 ab3c 6ff6 943c 3d7b 983d 4636 553d
000000f0: 6dbd eabc 4a92 113d 3626 b0bc 7a0e 9d3d
00000100: 2e30 83bc 6bc7 cf3d 804e 173c fa56 c03d
00000110: cd53 cb3c 3588 443d 5b61 f63d f047 28bd
00000120: 3145 c6bb ba7b 0c3d 9a85 67bd 8b07 84bd
00000130: 7104 f93d 3b9a 3cbd ee4c 9f3c 9e5a 8dbd
00000140: ff5d 45bc 074e 4b3d d630 8a3d 8bb2 a93d
00000150: 7900 e83b 9ceb 56bd 8155 3a3c f9f5 35bd
00000160: 882c e2bc 322e dc3c d8ad 7dbd f4ec cebd
00000170: 9bbd 8fbc db78 50bd 56c7 fcbb 777a 1bbd
00000180: c322 9c3d 6492 a63c 00d6 7dbd 2913 a43d
00000190: 3625 fc3c f95e 9fbc a656 06be 1146 163d
000001a0: a03c 21bc 0c5b 6e3d 2edc c8bd 86c8 783d
000001b0: 3c6c 0c3e 0e49 063d 4812 80bd 9bcd 333d
000001c0: 9fda a7bc 2bbb ac3d f52d b2bd bc8a a53d
000001d0: 58c0 ee3c eb13 64bd e1e3 d03c 7441 16bd
000001e0: d523 83bd 8c9b 9fbd 0a4f 98bd a9c6 863d
000001f0: 55d3 42bd 7474 eabc 1cf4 853c 6986 9fbd
00000200: 3755 cb3d 4bf1 823d 92f7 83bd 7072 45bd
00000210: e3a5 673c f4ea 52bd d1eb b2bc 6f43 c03d
00000220: 835e 153d d789 4c3d 0258 ac3d ae2e e7bc
00000230: 9edf 81bd 0c78 5dbd c876 16be 73d6 85bc
00000240: db90 8c3d f208 de3c bee0 5b3c b037 b6bd
00000250: a6fe 59bd 1e6b 05be bfce 7ebc 85a7 a0bb
00000260: 00dc 7d3c 0336 b33c c925 d63b a2c6 3cbd
00000270: c6bc 193d 19cb 3dbc 7368 55bd 95c3 aebd
00000280: 963b 8bbc e2d7 f93c d69b dabd 7a53 aabd
00000290: 0269 013d 8d8c ea3c 4da4 c7bd 1478 433c
000002a0: 0fb8 3dbd 0893 023d d20a c33b 3be8 6b3d
000002b0: 2c01 a4bd f367 b3bd 862c a2bd 2ee4 dcbd
000002c0: 1a66 113e 3595 7a3d 7991 64bd fe8f c03b
000002d0: 3959 83bc 9077 a0ba 0bc3 05bc e8d2 e3bc
000002e0: ec9f b4bd da09 373a b14a a4bd 5b85 863d
000002f0: 9934 143d 14ee b63c ba3f babd 264b 8bbd
00000300: 1dad cd3b e051 a63d 3d85 5cbd 25a9 b6bc
00000310: 027f 823d 59ec a63d d748 b33d d69a 10bc
00000320: 556b aebd d933 53bd c85f 8cbd bca3 7abc
00000330: 74d0 8e3d faee a5bd c93d 12be 97af 773b
00000340: 1365 48bd f24a 8d3d c357 023e 01a2 19bd
00000350: 2976 853d 5d21 89bd 38e7 973d 92e5 933d
00000360: 72ac ffbc b869 07bd 3066 9dbb 0f32 19bc
00000370: 9d12 133d 475c 3b3d 4fac a23c 3667 98bd
00000380: 4b50 c73c 5082 2bbd 5218 363b 805a 813d
00000390: e898 b43d d066 a93c ebca 87bd a725 eebb
000003a0: 4dae edba 34ee 903d 17ee b13d 841c b03d
000003b0: 33b7 a43c 5baf b43d 4836 8f3c 070c e2bc
000003c0: c953 e13d d444 873d 3c2d 18bb 28fc 62bd
000003d0: 6175 4b3c ef02 4a3b 0743 983d 8434 ac3d
000003e0: aa6d 553d 12a5 193e cbe0 a43d eb1b 33bd
000003f0: 0f4f f6bc f0fb 1ebd 6fa6 843d aada e7bc
-0.14473674 0.035970207 0.0963235 0.01664953 0.012260556 -0.013931254 -0.02860863 -0.115057744
-0.058257896 0.012271951 0.029553175 -0.08821564 0.053568672 -0.11398446 -0.033599045 0.13542874
0.015863864 -0.059465896 -0.060661983 0.070741616 -0.12729965 0.0668779 -0.056359604 0.034460876
-0.04329613 -0.030655809 -0.050235912 0.037562955 0.030361233 -0.0117605375 0.052522596 0.09350421
0.052049015 -0.074166045 -0.033613898 -0.07074456 0.059782777 -0.070749685 -0.05703806 -0.033096157
0.04897691 0.025614314 -0.11471199 0.015396913 -0.029249813 -0.114287265 0.0212222 -0.002987044
-0.07161133 -0.039095923 0.06080568 -0.017542774 -0.14428726 0.012799185 -0.02402371 0.07555108
0.020921044 0.018183915 0.07445381 0.052053712 -0.028654778 0.035539903 -0.021502595 0.07668777
-0.016014185 0.10145458 0.009235024 0.093915895 0.024820233 0.04798146 0.12030288 -0.04108423
-0.0060507287 0.034297682 -0.056523897 -0.06446751 0.1215905 -0.046045523 0.019445863 -0.069020495
-0.012046336 0.04963496 0.06747596 0.082860075 0.0070801345 -0.05247079 0.011372925 -0.04442403
-0.027609125 0.026877496 -0.06193337 -0.10103789 -0.017546466 -0.050896507 -0.0077141924 -0.03795859
0.07623818 0.020333476 -0.061971664 0.08011467 0.030779462 -0.019454466 -0.13118991 0.036687914
-0.009841114 0.058192298 -0.09807621 0.06073811 0.13713163 0.032784514 -0.06253487 0.043897253
-0.020489989 0.08434137 -0.08700172 0.08083102 0.029144451 -0.055683058 0.025499286 -0.036683515
-0.06403319 -0.0779334 -0.074369505 0.0658086 -0.047564823 -0.028619982 0.016351752 -0.077893086
0.09928363 0.06393679 -0.06443705 -0.04820484 0.014138672 -0.0514936 -0.021840962 0.09387862
0.036467087 0.04993614 0.08415224 -0.0282205 -0.0634148 -0.054069564 -0.14693749 -0.016337609
0.068635665 0.027103875 0.013420282 -0.0889734 -0.053221367 -0.13029143 -0.015552222 -0.0049027824
0.015494347 0.02187634 0.006535266 -0.04608787 0.037533544 -0.011584067 -0.052101564 -0.08533398
-0.016996186 0.030498449 -0.106742546 -0.08316703 0.031594284 0.028631473 -0.09748135 0.011930484
-0.04631811 0.0318785 0.0059522176 0.05759452 -0.08008036 -0.08760061 -0.079186484 -0.10785709
0.14199105 0.06117745 -0.055802796 0.00587654 -0.016033756 -0.0012242664 -0.008164178 -0.027810529
-0.08819565 0.0006982364 -0.08022059 0.06568404 0.036182974 0.022330321 -0.09094186 -0.06801443
0.00627674 0.08121085 -0.053838003 -0.022297451 0.06371881 0.081505485 0.087541275 -0.008825978
-0.08516566 -0.051563118 -0.06854206 -0.015297826 0.06973353 -0.08102222 -0.14281382 0.0037793869
-0.048924517 0.0689906 0.12728791 -0.037508015 0.06516678 -0.06695817 0.07417148 0.072215214
-0.031210158 -0.033059806 -0.0048034415 -0.009350314 0.035906423 0.0457423 0.019857554 -0.07441561
0.024330279 -0.041872323 0.0027785492 0.0631609 0.08818227 0.020678908 -0.066305004 -0.007267672
-0.0018133611 0.07076684 0.0868799 0.08599189 0.020106887 0.08822509 0.017481938 -0.027593626
0.11002309 0.06604925 -0.002322032 -0.055416256 0.012418122 0.0030824502 0.074346595 0.08408454
0.052106537 0.15004376 0.08050688 -0.043727797 -0.030066995 -0.038814485 0.06477057 -0.02830251

lstm.bias_hh_l0 f4 [400]
00000000: e2dc c0bc 1252 7dbd 9eb5 61bd 27eb a33c
00000010: 25db e3bc 5e06 993a 7bdf f83c 7aff 34bd
00000020: 9161 92bc a37e a63d b2cd ffbb b1c6 ec3c
00000030: edc7 823c ca0b 59bd 802e 9f3c 7a36 9f3d
00000040: ecfb 943d 70e1 b5bd b653 7abd b7dd f8bb
00000050: 221e 94bd 2ff9 d63c 8878 e23c 0065 adbd
00000060: 85fa 94bd b51f c53d d683 553d f854 f0bc
00000070: 1280 bfbd 6f45 643d 9d55 eabc f1e7 163e
00000080: a489 b6bd a78d 42bc be75 cebc 198f 96bd
00000090: 83ed 21bd f395 43ba 4152 7d3d 4976 843d
000000a0: b225 533d 054c f53b 63b0 1bbd 2d3f c63d
000000b0: d262 c53c e53f c4bd 215f 11bd 4f2b da3d
000000c0: d2e5 18bd f805 bbbd 7847 48bd 3d2c 82bc
000000d0: c5df 353d e3ac c93d 5514 efbd cbd3 51bd
000000e0: 2618 823d 0476 4e3d 8448 d33d cebe cfbd
000000f0: 0686 063e 428f c23d 53f4 ff3d 913a cd3d
00000100: 4319 1cbc d724 88bd 2690 013c 9748 83bd
00000110: d15c 5e3c 7aa8 1e3d 1c6c ea3d 10a4 3cbd
00000120: 0d69 5e3d d956 af3c ade3 a9bd fe1c 55b8
00000130: ae47 473d ec09 2ebd 6b16 cb3c b057 34be
00000140: 0be6 78bd 9c08 bdbd d82f 453c b082 973d
00000150: 1afe 12bd 8e8f 1bbd bc76 81bd 715c 593d
00000160: ed44 98bd bbf3 533d c85a aa3c 56bd 32bb
00000170: 6449 febc 0c7d 4d3d 76e6 5cbd 8eec 92bd
00000180: 1668 cfbc 7d2b 8f3d 0ecf 83bd 3124 eb3d
00000190: f966 5f3d f36f c2bd 11a7 a1bd 5806 94bd
000001a0: ec5d b1bd fdf8 c9bd 20ba 263c ca08 c8bd
000001b0: da2a d23d d74d cdbd ea92 a13c 8d7f f0bd
000001c0: bc4e 123d 9545 983d d1ec b3bd 1d07 0a3d
000001d0: f0c6 e4bc 7eec 0dbd 8c54 babd 5a56 b03d
000001e0: a7d6 523d e707 783c acf9 17bd 6d69 91bc
000001f0: 3f19 d8bd a571 153d e7da 40bc d147 dbbd
00000200: 35a3 df3d 59ae 993d d00c a13d b236 6abd
00000210: 3916 f03d 142e 85bc 7cf1 bb3d 0e70 853d
00000220: 5474 193d 65ed b03d a862 edbc 7e7e 2c3b
00000230: 44f5 073d 5cd4 663d eabf ae3c 01ba e83d
00000240: 5b48 babd c62a 97bd 2d84 913d 9e6f 26be
00000250: 612d 4f3d ed26 77bd 7efe 8c3c 1c1e b2bc
00000260: 3734 26bd fa4c f83c 3c33 b2bd 36c7 a3bd
00000270: e124 cfbd 7529 afbd e6f1 bebd 02a7 f4bd
00000280: 65b9 02be 6566 923d c91d 1bbe 750d bcbd
00000290: 1adc d43c 4f1b 22bd 1ea4 753c de0f 913c
000002a0: 767d 03be 01bd dcbd f695 00bd 6a02 853d
000002b0: 1a38 f0bd ccd9 e43b 14a7 9bbc 28c4 7cba
000002c0: ff83 6b3d 0b68 0c3d 6a78 85bd e007 a73d
000002d0: 644a b0bd 0a0f b1bc 21da 17bd ae19 7fbd
000002e0: 4ecb 1d3d cd50 c33d e75d 283c fb69 babd
000002f0: 4798 59bc 8b45 923d 589a babd 15b8 7dbd
00000300: 8a94 133e 9d36 c53d c29b 823d 12ce 29be
00000310: 6d2a 64bd c46b 123d 7ccb a83c 8c0a 04bd
00000320: 604e 163c ab91 1cbc 404e c23d 5b5d cbbc
00000330: dea8 ed3d a0c4 81bd cedc 5a3c 3952 853d
00000340: 5be9 b2bc 8060 893d 2846 e43d 5bd8 1dbd
00000350: 2b9c 59bc f2a5 09bd 5e02 2c3d ac6b b43d
00000360: 291a cebd debe 283d d741 e23b 9f75 2cbd
00000370: c4fd 30bd a748 733d 0e1c 50bd 4006 b1ba
00000380: 7248 243d 06db 3dbd 18b2 bb3c 12bf 973d
00000390: b392 8cbd 6c08 78bb 6823 8b3d 5e2d 923d
000003a0: c66f 41bd 92ce 2b3d 40ed 8e3c e361 723c
000003b0: cac7 a43d 774b 22bc c10f 90bd 0ec5 efbd
000003c0: df39 963d 4cf5 563c cc33 5b3d 5703 15bd
000003d0: 74e6 923c 9296 aabd d823 3b3d 7623 773d
000003e0: 952f aebd f577 acbc 19b9 b5bd df2c 1a3a
000003f0: fc76 a13d c326 94bd 09f8 223c b79c 43bd
-0.023542825 -0.061845846 -0.055104844 0.02000959 -0.027814457 0.0011674871 0.030380001 -0.044188954
-0.017868789 0.08129623 -0.007806503 0.028903337 0.015964473 -0.05298976 0.019431353 0.077740625
0.07274613 -0.088808894 -0.06111499 -0.00759479 -0.0723231 0.026241867 0.027645364 -0.0846653
-0.07274345 0.09625188 0.05212768 -0.029337391 -0.09350599 0.05573028 -0.028605277 0.14736916
-0.089129716 -0.011874593 -0.025202628 -0.073515125 -0.03953315 -0.0007461004 0.06184602 0.064678736
0.05154962 0.007485869 -0.038010012 0.096800186 0.024094973 -0.095824994 -0.035491113 0.10652792
-0.03732855 -0.09131998 -0.048896283 -0.015890235 0.044402856 0.09847429 -0.116738 -0.051227372
0.06352262 0.050405517 0.10316566 -0.10143815 0.13137063 0.094999805 0.12497773 0.10020936
-0.009527507 -0.06647652 0.007907903 -0.0641033 0.013571934 0.03873489 0.114464015 -0.0460549
0.054299403 0.021403717 -0.08295379 -5.081016e-05 0.048652343 -0.04248993 0.024790963 -0.17611575
-0.06076626 -0.09230158 0.012035333 0.073979735 -0.03588686 -0.0379787 -0.06321475 0.053066675
-0.074350215 0.05174611 0.020795241 -0.0027273498 -0.031040855 0.050168082 -0.053930722 -0.071740255
-0.025318187 0.069907166 -0.06435977 0.11481512 0.05454156 -0.09494009 -0.078931935 -0.072277725
-0.08660492 -0.09861944 0.010176212 -0.097673014 0.102620795 -0.100246124 0.019723374 -0.117430784
0.03571962 0.07435147 -0.087854035 0.03369819 -0.027926892 -0.034649365 -0.09098157 0.0861022
0.05147424 0.015138603 -0.03710334 -0.017750466 -0.1055169 0.036485333 -0.01177094 -0.10707057
0.10919801 0.07503957 0.07863772 -0.057181068 0.11722989 -0.016257323 0.09176919 0.06515513
0.037464455 0.086390294 -0.028977707 0.0026320512 0.033192888 0.056354865 0.021331746 0.113636024
-0.09095832 -0.07381205 0.07105289 -0.16253516 0.050580386 -0.060339857 0.017211195 -0.021742873
-0.04057714 0.030310143 -0.087011784 -0.07996981 -0.10114456 -0.08552829 -0.09323482 -0.11945917
-0.12766035 0.071484365 -0.15148081 -0.09182254 0.025983859 -0.039576825 0.014992742 0.017707761
-0.12840828 -0.10778237 -0.031393014 0.06494601 -0.117294505 0.006983971 -0.019000567 -0.00096422667
0.05749893 0.03427891 -0.06517108 0.08155799 -0.08607939 -0.021613616 -0.03707326 -0.06228035
0.038523965 0.09536896 0.010276294 -0.091022454 -0.013280935 0.071421705 -0.0911147 -0.061943132
0.14412132 0.09629557 0.06377365 -0.16582516 -0.055704523 0.035747305 0.020604841 -0.03223662
0.0091739595 -0.009556214 0.09487581 -0.024824789 0.116044745 -0.06336331 0.013358308 0.06509823
-0.021839788 0.06707859 0.11146194 -0.03853641 -0.013281862 -0.033605523 0.041994445 0.08809599
-0.100635834 0.04119765 0.0069048214 -0.04210436 -0.04321076 0.05939546 -0.050808005 -0.0013505891
0.04010815 -0.046351455 0.02291207 0.07409491 -0.06863918 -0.0037846817 0.067938626 0.07137559
-0.047225736 0.041945048 0.017447114 0.014793846 0.08045919 -0.0099056875 -0.07034255 -0.11707507
0.07335257 0.013120007 0.053516194 -0.03638014 0.017932154 -0.083295 0.04568848 0.060336553
-0.08505169 -0.021053294 -0.08873195 0.000588132 0.078840226 -0.07233956 0.0099468315 -0.047756877

hidden_to_y.weight f4 [1, 100]
00000000: 97da 2e3a d8bd 643b a6a2 6ebb fca3 58bd
00000010: bf79 66bd a826 483d 379a 2dbd 129f f23c
00000020: 965e a03d 0efe c5bc 8115 72bc d4e7 6d3a
00000030: 12b7 0bbd 70b5 5a3d 6338 e8bb c8d3 8ebd
00000040: 1696 383d 960f 84bd 06fc 55bd 9571 0c3d
00000050: 2812 1bbd 9fdd b83c 0fb0 a8bc c369 5f3d
00000060: 1062 18bd 59f8 2d3d 2a1a 993d 74d0 13bb
00000070: 9b2f 7eb9 64fa 7fbd 246d 103b ede8 d9bc
00000080: de09 e3bc 08a0 bfbc 1525 b53c b596 d53c
00000090: cd41 c13c 37f0 f7ba 88b2 1a3c 6851 be3c
000000a0: 1ef1 193c 9a23 39ba 0af4 d73b 2085 95bd
000000b0: f913 343c 4123 73bc 7392 193d 6200 073d
000000c0: 9f83 183d cd49 763d 28fe 4abc 0ad1 aa3c
000000d0: 2bf1 7d3c c048 a83d 4acd 96ba 1225 adbc
000000e0: a200 34bb d441 1f3d 4faa fb3c 2070 8cbc
000000f0: 0e4b df3c 0af2 9bbd 3314 9b3d ea8c 2fbd
00000100: f85e fbba 6b27 2fbc 3eca e03c 4d4c 093d
00000110: 4b19 203c 4ff4 fc3c 9997 ac3d 2a61 b03c
00000120: 83c4 4b3c 391a 183d 441d 7d3c 5256 98bc
00000130: bdb9 393d 5a51 67bd 3dcd a83b 1deb c73c
00000140: c4d0 25bd 6c44 27bb 2c85 2e3d 0a60 443c
00000150: 22bf 3abd d7d2 e53a b55b 963a 00b7 61bb
00000160: 239b 053d ffa4 a73d 1914 953d d019 0b3d
00000170: 5cea 48bd 17a0 a43d 3b3a 593d 2639 1ebc
00000180: 9b44 a73c c113 c83c fc6a d73c a958 0fbb
0.00066701457 0.0034903195 -0.0036412864 -0.052890763 -0.05626845 0.04886499 -0.0423834 0.029616866
0.07830541 -0.024168994 -0.014775635 0.00090753776 -0.034110136 0.05339569 -0.0070868 -0.06973988
0.045065008 -0.06448285 -0.0522423 0.034288008 -0.037859112 0.022566615 -0.020591764 0.05454422
-0.037202895 0.04247317 0.074756935 -0.0022554668 -0.00024241062 -0.06249465 0.002203771 -0.026600325
-0.027714666 -0.023391739 0.022112409 0.02607284 0.023590947 -0.0018916194 0.009441979 0.023232177
0.009395866 -0.0007062495 0.006590371 -0.07300782 0.01099109 -0.014839948 0.03749318 0.03295935
0.0372349 0.060128976 -0.012389697 0.02085163 0.015499393 0.08217001 -0.0011505273 -0.02113584
-0.0027466197 0.038881138 0.030720858 -0.01714331 0.027257469 -0.07614525 0.07572212 -0.042858995
-0.0019178083 -0.01069055 0.027440187 0.03352003 0.009771655 0.030878214 0.084273525 0.021530706
0.012436989 0.037134383 0.015448872 -0.018595848 0.04534315 -0.056474067 0.0051514194 0.024404103
-0.040482298 -0.002552296 0.04260747 0.011985788 -0.045592435 0.0017534149 0.0011471423 -0.0034441352
0.032618653 0.081857674 0.07279224 0.033960164 -0.049051628 0.08038347 0.05303405 -0.00965718
0.020418456 0.024423482 0.026296131 -0.0021872914
