py/models/gmd_LSTM_mb1.pt (torch_old, 187059 bytes, 5 tensors)

lstm.weight_ih_l0 f4 [400, 14]
0	0x3c76b4d6	0.015057763
1	0xbcd66645	-0.026171813
2	0x3d9325d3	0.07184949
3	0x3c82e04a	0.01597609
4	0x3c05f36b	0.008175711
5	0x3d9113ea	0.070838764
6	0xbdb0435d	-0.086065985
7	0x3d3b4e0c	0.04572873
8	0x3de9371c	0.113874644
9	0xbcb71130	-0.022347063
10	0x3e2813f0	0.16413856
11	0x3e0abfb0	0.13549685
12	0x3e53a49f	0.20668267
13	0x3d836697	0.06416052
14	0xbd4a2cd0	-0.049359143
15	0x3d0b4a62	0.034006484
16	0xbd5947db	-0.053047042
17	0x3d0f2f79	0.034957383
18	0xbd4e3ebc	-0.050352797
19	0x3d4b112f	0.049576934
20	0x3cad9c62	0.021192733
21	0xbd1f4a3d	-0.03888916
22	0xbd4e5486	-0.050373577
23	0xbd809e16	-0.062801525
24	0x3df4e757	0.11958187
25	0x3d2adc53	0.041714024
26	0xbc4dd2ea	-0.012562493
27	0xbb9f0ce0	-0.0048538297
28	0x3d81d3e9	0.06339247
29	0x3b80c9f6	0.0039303256
30	0x3dd79c42	0.10527851
31	0xbd862211	-0.065494664
32	0x3db5533f	0.088537686
33	0x3cb497aa	0.022044975
34	0x3d25c808	0.040473968
35	0x3e05ff0b	0.13085572
36	0x3d73f9cb	0.059564393
37	0xbcf2e08a	-0.029648084
38	0x3dccb7d8	0.09996003
39	0xbd7ef435	-0.062244613
40	0x3bab7036	0.0052318824
41	0xbdcc38bb	-0.09971758
42	0x3d2407b2	0.0400464
43	0x3df9740c	0.12180337
44	0xbdc97156	-0.0983607
45	0x3cbe9022	0.023262087
46	0xbc054d49	-0.008136102
47	0xbde43c29	-0.11144287
48	0x3ddec090	0.10876572
49	0x3d6747f4	0.056465104
50	0x3c5876e6	0.013211941
51	0x3e173c13	0.1476901
52	0x3d0af385	0.033923645
53	0x3d58cba0	0.052928567
54	0x3db9dac9	0.09074933
55	0xbca50df8	-0.020148262
56	0xbc978ce7	-0.018499805
57	0x3c353282	0.011059405
58	0xbc042a9c	-0.0080667995
59	0x3c30c9be	0.010790287
60	0xbc687268	-0.014187433
61	0x3da961f3	0.082706355
62	0x3cd4604c	0.025924824
63	0xbd31d0c4	-0.043411985
64	0x3d6f25e4	0.058385745
65	0xbb821102	-0.0039693126
66	0x3df5503f	0.11978196
67	0x3cd48471	0.02594206
68	0x3d395770	0.045249403
69	0xbc83b618	-0.01607804
70	0x3c19348b	0.009350906
71	0xbbd9246a	-0.0066266553
72	0xbe28e6e6	-0.16494331
73	0x3d9c50f2	0.076326266
74	0x3d821eca	0.06353529
75	0xbd413d00	-0.047177315
76	0xbd7fdd71	-0.062467042
77	0x3b6e3e95	0.003635322
78	0x3d04cf13	0.032424044
79	0xbe2cfcb0	-0.16893268
80	0xbc5c2dbe	-0.01343864
81	0x3cee2e87	0.02907492
82	0xbd7c4d10	-0.06159693
83	0xbc366f98	-0.011135004
84	0xbe04e37b	-0.12977402
85	0x3d227743	0.039664518
86	0x3c14dd60	0.009085983
87	0xbdfdf633	-0.124004744
88	0xbdba1dcc	-0.090877146
89	0x3d002abd	0.03129076
90	0x3c9fd1fe	0.019509312
91	0xbc6f26e8	-0.014596678
92	0xbca38f51	-0.0199658
93	0xbdd24cd5	-0.10268561
94	0x3af0d718	0.001837465
95	0xbdd5c845	-0.10438589
96	0xbd250c94	-0.0402952
97	0x3d341fa2	0.04397548
98	0x3c55a562	0.013039919
99	0x3c0a1a23	0.008429083
100	0xbbcfe83a	-0.0063448222
101	0x3cbe5b54	0.023236908
102	0xbc8471de	-0.016167577
103	0xbd68d867	-0.056847002
104	0x3d8b9e8c	0.0681735
105	0x3dd0854b	0.101816736
106	0x3d91c44b	0.07117518
107	0xbb9400fd	-0.0045167194
108	0xbe15a26a	-0.14612737
109	0xbe1c59b0	-0.15268588
110	0xbd7518a7	-0.059837963
111	0xbd1d27d0	-0.038368046
112	0xbcb80dbc	-0.022467487
113	0xbc1e758f	-0.009671583
114	0x3dd5b026	0.10433988
115	0x3dd1cc02	0.102439895
116	0xbc0ba426	-0.008523023
117	0xbcf62f1c	-0.03005176
118	0x3d553da6	0.052060746
119	0xbc229af0	-0.009924635
120	0xbdc67b15	-0.09691445
121	0x3d7f2c96	0.06229838
122	0x3e17a94f	0.1481068
123	0xbd81ca5e	-0.063374266
124	0xbbbfa6a8	-0.0058487244
125	0x3cb1a7f4	0.021686532
126	0xbdca6122	-0.09881808
127	0xbd9b548c	-0.075844854
128	0x3d94f6aa	0.0727361
129	0xbcf17dc6	-0.029478919
130	0x3db48ec4	0.08816293
131	0x3c4343ef	0.011918052
132	0x3d9338ea	0.0718859
133	0xbd8727de	-0.06599401
134	0xbc72cdde	-0.01481959
135	0x3d67c613	0.056585383
136	0x3d3b8bbd	0.04578756
137	0xbcfcf85c	-0.030880146
138	0x3bd8384f	0.0065985094
139	0x3d9ccc71	0.076561816
140	0xbd9791b4	-0.074008375
141	0x3d448987	0.04798272
142	0xbd800e33	-0.06252708
143	0xbc51f64d	-0.01281507
144	0xbc7cf545	-0.015439336
145	0xbde6b50a	-0.11264999
146	0xbd76352d	-0.060109306
147	0x3dc1060e	0.09424983
148	0x3e09ec93	0.13469152
149	0xbdd82935	-0.105547346
150	0xbd14ed62	-0.0363592
151	0x3d88b217	0.06674593
152	0x3d1138d0	0.03545457
153	0x3d8ad417	0.06778734
154	0xbd93e45a	-0.07221289
155	0xbc9ec2e1	-0.019380035
156	0x3a9c77ec	0.0011937595
157	0xb8f40f14	-0.00011637635
158	0x3dd7caa5	0.10536698
159	0x3d78aea1	0.060713414
160	0x3d86e6d0	0.06586993
161	0x3d6362c1	0.0555141
162	0x3cdfcf30	0.027320474
163	0xbce28226	-0.02764995
164	0xbe09e3ca	-0.13465801
165	0xbe0df893	-0.13864355
166	0xbddafaf3	-0.10692396
167	0xbd8498aa	-0.06474431
168	0x3d2c2434	0.042026713
169	0x3cd662d9	0.026170181
170	0xbd3a51fd	-0.045488346
171	0xbda4c36b	-0.080450855
172	0x3dca5d6f	0.09881102
173	0x3d99e7af	0.07514893
174	0x3d3c50d5	0.045975525
175	0x3dcce6e5	0.10004977
176	0xbd569ee2	-0.052397616
177	0xbdce61a9	-0.10077221
178	0xbdc269f2	-0.09492864
179	0xbcc14cdb	-0.023596218
180	0xbdced520	-0.10099244
181	0x3da220d1	0.079164155
182	0xbd3d7e61	-0.046263102
183	0xbcbf23df	-0.023332534
184	0xbdc701e8	-0.097171605
185	0x3d434831	0.04767627
186	0x3d1411bf	0.036149736
187	0xbd1c3195	-0.038133223
188	0x3e1f6727	0.15566693
189	0xbd2bfca6	-0.04198899
190	0xbbebbe1f	-0.007194295
191	0xbc21dca1	-0.009879262
192	0xbdc3eb54	-0.0956637
193	0xbde590ae	-0.11209236
194	0xbd0b7d0d	-0.034054805
195	0x3d8f0fbf	0.06985425
196	0x3d466783	0.04843856
197	0xbd3ddd50	-0.04635364
198	0xbb9b9187	-0.004747573
199	0x3da11a9c	0.078664035
200	0xbbeccc6c	-0.0072265174
201	0x3dd14a3c	0.10219237
202	0xbd2de439	-0.04245398
203	0x3da32221	0.07965494
204	0x3d8f4f8a	0.06997593
205	0x3d9bb6f5	0.07603256
206	0x3d3ec851	0.046577755
207	0x3cc7970a	0.024364013
208	0xbd888a56	-0.066670105
209	0x3a9c6e80	0.0011934787
210	0x3d4c1980	0.049829006
211	0x3c6b6411	0.014367119
212	0x3c7e58f5	0.015524139
213	0x3d60dc78	0.054897755
214	0xbdd5aa68	-0.10432893
215	0xbdedcf7e	-0.116118416
216	0xbd801910	-0.0625478
217	0x3ca72c6e	0.020406928
218	0xbc91c2c0	-0.01779306
219	0x3da7e0c2	0.08197166
220	0xbcf911f7	-0.030404074
221	0xbd92ece7	-0.07174092
222	0xbbba48f3	-0.0056849658
223	0x3d8ab559	0.067728706
224	0x3e547315	0.20747025
225	0xbca61371	-0.020272942
226	0x3df89b65	0.12139014
227	0x3dabd99f	0.08391117
228	0xbe0ad13b	-0.13556378
229	0xbdc1201d	-0.09429953
230	0xbd5109d1	-0.051034752
231	0xbe1be270	-0.15223098
232	0xbbec1935	-0.0072051533
233	0x3dba3481	0.090920456
234	0x3db18f15	0.08669869
235	0xbd3a9b28	-0.045558125
236	0x3e121373	0.14265232
237	0xbc9f4a58	-0.01944463
238	0x3dd0cf5f	0.10195803
239	0xbc1da774	-0.0096224435
240	0xbdbd6827	-0.09248381
241	0xbce8425b	-0.028351953
242	0xb9a5592f	-0.000315377
243	0xbe0fc6c1	-0.14040662
244	0x3d0b01c5	0.033937234
245	0xbd3d9b03	-0.04629041
246	0xbc76b546	-0.015057867
247	0xbaeabe0c	-0.0017909422
248	0x3d8f1a17	0.06987398
249	0xbd1ae72d	-0.037818123
250	0x3de1c81f	0.11024498
251	0xbd7b0aed	-0.061289717
252	0x3d3df33d	0.04637455
253	0x3e0d0802	0.13772586
254	0x3d590c76	0.0529904
255	0xbdaea20e	-0.08527003

lstm.weight_hh_l0 f4 [400, 100]
0	0xbe5e4003	-0.21704106
1	0xbdbb6a48	-0.09151131
2	0xbe0fa7c1	-0.14028837
3	0x3cff0934	0.031132318
4	0xbda87a3b	-0.082264386
5	0xbc69d8db	-0.014272894
6	0x3dd485a3	0.10377052
7	0xbd57e68a	-0.052710094
8	0x3e2a2877	0.16616999
9	0x3da64218	0.08118075
10	0xbcbea660	-0.023272693
11	0xbcf177d5	-0.029476086
12	0xbd04d2f1	-0.032427732
13	0x3d34dfd5	0.044158775
14	0x3a76fc07	0.000942171
15	0x3b8595b8	0.0040766858
16	0xbbe2a87c	-0.0069170576
17	0xbddf15c5	-0.10892824
18	0x3dca3185	0.09872726
19	0x3c2d1e35	0.010566284
20	0x3c0b162e	0.008489175
21	0x3e74b5c0	0.23897457
22	0xbe4f96f0	-0.20272422
23	0xbd8c55cb	-0.06852301
24	0xbdfe29df	-0.1241033
25	0xbda88cde	-0.08229993
26	0xbc781403	-0.01514149
27	0xbdf62ad3	-0.12019887
28	0x3de3c1b7	0.111209325
29	0x3bc11cbb	0.0058933175
30	0x3c321ca6	0.010871088
31	0xbe112a75	-0.14176352
32	0x3db07fd5	0.08618132
33	0xbe01af5f	-0.12664555
34	0xbd92cb5c	-0.07167694
35	0xbca03860	-0.019558132
36	0x3ca22a21	0.01979548
37	0x3cc9cfe9	0.024635272
38	0x3e0b7351	0.13618208
39	0xbd8b7917	-0.068102054
40	0x3b96c3a0	0.004600957
41	0xbd0290e7	-0.03187647
42	0xbd03c3d7	-0.03216919
43	0x3dd85b00	0.10564232
44	0x3cdcabb1	0.026937338
45	0xbb87bffc	-0.0041427594
46	0x3dad1880	0.08451939
47	0x3c3f889f	0.011690288
48	0x3cd43106	0.025902282
49	0xbd85a3a5	-0.06525353
50	0x3dc0c31c	0.09412214
51	0xbc96c3db	-0.018403938
52	0xbdf859dd	-0.12126515
53	0xbd2338af	-0.03984898
54	0xbd2f4cb5	-0.042797763
55	0xbd67b834	-0.056572154
56	0xbd82911f	-0.06375336
57	0xbdaacc6e	-0.08339773
58	0xbdf73a1f	-0.120716326
59	0x3d0f5433	0.034992408
60	0x3cde629c	0.02714663
61	0xbd8f2432	-0.069893256
62	0xbcc43487	-0.023950828
63	0xbc48e3aa	-0.012261311
64	0xbcac82dc	-0.021058492
65	0x3c9720db	0.018448284
66	0xbcc2687f	-0.023731468
67	0xbdb3e2bc	-0.087834805
68	0xbdc52620	-0.096264124
69	0xbe1ca941	-0.1529894
70	0x3e02f46c	0.12788552
71	0x3ce86a4f	0.028371004
72	0xbd0bd9fb	-0.03414343
73	0x3e291857	0.16513191
74	0x3dc2c23a	0.09509702
75	0x3e4e3ea5	0.20141084
76	0x3cdf44c6	0.027254473
77	0xbe63e025	-0.22253473
78	0xbd62adc9	-0.055341516
79	0xbe21ad69	-0.15788807
80	0xbe082f60	-0.13299322
81	0x3d5becd7	0.053692665
82	0x3e3d2319	0.1847042
83	0x3d80fa0d	0.062976934
84	0x3cccae76	0.024985533
85	0xbe0ac051	-0.13549925
86	0x3dc5fc70	0.09667289
87	0x3d506810	0.05088049
88	0xbda80fd3	-0.08206143
89	0x3d8fb4c6	0.07016902
90	0xbd5c7d02	-0.053830154
91	0x3d3eab86	0.046550296
92	0x3d8510a9	0.06497318
93	0x3d8aa387	0.067694716
94	0x3db62984	0.08894637
95	0xbcf755c4	-0.030192263
96	0xbdec70d3	-0.11544957
97	0x3c3ebbf7	0.011641494
98	0xbe4b94e8	-0.19881022
99	0xbe22e210	-0.15906549
100	0x3c480cef	0.012210115
101	0x3db4fe87	0.0883761
102	0x3dae8869	0.08522112
103	0x3da95041	0.0826726
104	0x3da8903f	0.08230638
105	0x3d9feba3	0.07808616
106	0x3cca14b2	0.024668071
107	0x3d828df8	0.06374735
108	0x3bc15d3c	0.005901007
109	0xbd809e5b	-0.06280204
110	0xbda63686	-0.08115868
111	0xbce8168c	-0.028331064
112	0x3aa48e2c	0.0012554578
113	0x3d82afcc	0.06381187
114	0xbce21dba	-0.027602065
115	0x3da50607	0.0805779
116	0x3db03986	0.08604722
117	0x3db86b65	0.09004859
118	0x3ccc04ff	0.024904726
119	0xbd7736e0	-0.060355067
120	0x3d7ac865	0.061226267
121	0xbb507572	-0.0031808284
122	0xbda7cc9a	-0.081933215
123	0x3ca2f7d8	0.019893572
124	0x3dc262c1	0.09491492
125	0xbda994e4	-0.08280352
126	0xbd9b039d	-0.075690486
127	0xbbda654b	-0.006664907
128	0xbd38ba2f	-0.045099434
129	0xbd69cd24	-0.057080403
130	0x3da44c03	0.080223106
131	0x3da5ddb6	0.08098929
132	0xbd0e4e04	-0.03474237
133	0x3d5d109b	0.053970914
134	0xbdb11bf0	-0.08647907
135	0xbd52eef6	-0.051497422
136	0x3d49f371	0.04930443
137	0x3c71a6ea	0.014749268
138	0xbd7f1ab2	-0.062281318
139	0xbdbe8fa0	-0.09304738
140	0xbd88aca6	-0.06673555
141	0xbdaa6b14	-0.08321205
142	0xbd9d8f9d	-0.07693408
143	0x3d8a75bb	0.067607366
144	0x3cdbc033	0.026825046
145	0xbbd3c93d	-0.0064631985
146	0x3d2fabc1	0.042888407
147	0x3d8714d0	0.065957665
148	0xbd44b4b9	-0.048023913
149	0x3bda2b52	0.006657996
150	0x3db947b4	0.090468794
151	0x3d154129	0.036439095
152	0x3dcbd01a	0.099518016
153	0x3dc32df7	0.095302515
154	0x3d1b199e	0.037866227
155	0x3d82ef3a	0.06393285
156	0x3d9e18a8	0.077195466
157	0x3cbcd3df	0.023050247
158	0xbb39e510	-0.0028365292
159	0x3d9d6c28	0.07686645
160	0xbd51ae2d	-0.051191498
161	0x3b7b7bac	0.0038373275
162	0xbd98f092	-0.0746776
163	0x3d5b4090	0.05352837
164	0xbcee69a2	-0.029103104
165	0xbb5bbf68	-0.0033530835
166	0x3d707d2d	0.058713127
167	0xbc9ced0d	-0.019156003
168	0x3cd5f207	0.026116384
169	0xbdb0e658	-0.086376846
170	0xbb7d4891	-0.003864799
171	0xbda44c41	-0.08022357
172	0x3daeb165	0.08529929
173	0x3ca9611e	0.020676192
174	0x3d3f7f90	0.046752512
175	0xbd4c83a6	-0.049930237
176	0xbd5e351d	-0.05424987
177	0xbd519641	-0.051168684
178	0xbdb2be57	-0.08727711
179	0xbb7bbb17	-0.0038411075
180	0xbc6d9435	-0.014500667
181	0xbdb232b0	-0.08701074
182	0x3db5f8b9	0.08885331
183	0x3db4499e	0.08803104
184	0xbd80f150	-0.06296027
185	0x3d7365eb	0.05942337
186	0xbcb03f97	-0.021514697
187	0xbc494e38	-0.012286715
188	0x3d04fbda	0.032466747
189	0xbdb8ff2c	-0.09033045
190	0xbdb148da	-0.086564735
191	0x3db20108	0.08691603
192	0x3d2ef599	0.04271469
193	0xbdca31c6	-0.09872775
194	0xbd44cbf7	-0.04804608
195	0x3cad06fc	0.021121494
196	0x3d431428	0.047626644
197	0xbd52fb1e	-0.051509015
198	0x3d8c5c61	0.068535574
199	0x3c2dbd74	0.010604251
200	0xbd81ac9b	-0.0633175
201	0xbd4a76f6	-0.049429856
202	0xbd7d0cc4	-0.061779752
203	0x3ddd8c91	0.108178265
204	0x3db7bf9c	0.089720935
205	0x3d1e9879	0.038719628
206	0x3d5b1fb9	0.05349705
207	0xbac3c4c1	-0.0014935957
208	0x3da26840	0.0793004
209	0x3c7630de	0.015026299
210	0x3ddf2dfd	0.108974434
211	0x3d95b816	0.07310502
212	0xbd247660	-0.040151954
213	0x3def5a69	0.11687166
214	0x3cdd98af	0.027050344
215	0xbdd8b0d2	-0.10580601
216	0x3cd05ac3	0.025433904
217	0xbcfca4cc	-0.0308403
218	0xbc9845f8	-0.018588051
219	0x3d556ac9	0.05210379
220	0xbd03694f	-0.032082852
221	0x3d83fd06	0.06444745
222	0xbd47636d	-0.048678804
223	0x3d943a58	0.07237691
224	0x3d57e3f8	0.052707642
225	0xba5f3f55	-0.0008516212
226	0xbdb6ad3d	-0.08919761
227	0xbd420eb5	-0.047377307
228	0x3d98f2d5	0.074681915
229	0xbda65a9c	-0.08122751
230	0xbdb99cf9	-0.09063143
231	0xbd762d54	-0.060101822
232	0xbdb54877	-0.08851712
233	0x3cf46f54	0.029838242
234	0x3dee2b6e	0.11629377
235	0xbde60630	-0.11231649
236	0x3d35f65b	0.044424396
237	0x3cb0fd66	0.021605205
238	0xbc97a69a	-0.018512059
239	0x3d2456a1	0.04012168
240	0x3e2030bc	0.1564359
241	0xbe00520a	-0.12531295
242	0x3cd2bbd2	0.025724325
243	0xbd5a07ee	-0.05323022
244	0x3ca325e5	0.01991553
245	0xbe1ebc1e	-0.15501449
246	0xbcf9c75f	-0.030490575
247	0x3d8be911	0.06831563
248	0xbdbb4dfb	-0.09145733
249	0x3dd41dc0	0.10357237
250	0xbc40462c	-0.01173548
251	0xbbeaae7b	-0.007161913
252	0x3dad9f3c	0.08477637
253	0x3da9810c	0.08276567
254	0x3d5d067d	0.053961266
255	0xbc89531c	-0.016763262

lstm.bias_ih_l0 f4 [400]
0	0x3d0ed83b	0.034874182
1	0x3c51e8d5	0.012811859
2	0x3de69525	0.11258916
3	0x3d0046e6	0.031317614
4	0x3d677ff8	0.056518525
5	0xbd81b27f	-0.063328736
6	0xbd00d41a	-0.031452276
7	0xbe108c80	-0.14116096
8	0xbd30b97d	-0.043145645
9	0x3cc291a4	0.023751087
10	0x3d30fe6b	0.043211382
11	0xbdf404fc	-0.11915013
12	0x3d50b2db	0.05095182
13	0xbe2a5cdd	-0.16636987
14	0xbb88f8eb	-0.004180064
15	0x3db5da5c	0.08879539
16	0x3cfe342b	0.031030735
17	0x3cac17bd	0.021007413
18	0x3ccad5ae	0.024760094
19	0xbc19675a	-0.00936302
20	0xbdfa95af	-0.12235581
21	0x3de94eee	0.11392008
22	0xbdb1b476	-0.08676998
23	0x3d97b1b6	0.074069425
24	0xba99adea	-0.0011724804
25	0xbda1130e	-0.078649625
26	0xbd4ee026	-0.050506733
27	0x3e015e16	0.12633547
28	0x3cb19bab	0.021680674
29	0xbddde3f9	-0.10834498
30	0x3d6ce2d2	0.0578335
31	0xbcf4c7eb	-0.029880485
32	0x3d7475f0	0.059682786
33	0xbda7cf45	-0.081938304
34	0xbd329d87	-0.04360726
35	0xbdd23591	-0.10264123
36	0x3ba0d499	0.004908156
37	0xbde3c418	-0.11121386
38	0xbde46bc9	-0.11153371
39	0xbdaa44b9	-0.08313889
40	0x3d47ed52	0.04881031
41	0x3cc7bf32	0.024383161
42	0xbdf82d6b	-0.12118038
43	0xbcf4e193	-0.029892718
44	0xbd47f672	-0.048819013
45	0xbe0fa0d9	-0.14026202
46	0xbc12e3f2	-0.008965479
47	0xbd9580fa	-0.07299991
48	0xbd930405	-0.07178501
49	0xbd1a5b77	-0.037684884
50	0x3d76d746	0.060263894
51	0x3d278523	0.040898453
52	0xbe0cffc7	-0.13769446
53	0x3de4cf0c	0.111723036
54	0x3dca7aac	0.09886679
55	0x3db1b023	0.086761735
56	0xbb7f396f	-0.0038944145
57	0x3d5460c6	0.051850103
58	0xbb8abf21	-0.00423421
59	0x3cfde9be	0.030995246
60	0xbe00c138	-0.12573707
61	0x3d64c803	0.05585481
62	0xbd54eb2a	-0.051982082
63	0x3aef1d11	0.0018242915
64	0x3a850112	0.0010147414
65	0x3d286be9	0.041118536
66	0x3c7b1791	0.015325443
67	0x3e48ac44	0.19596964
68	0x3989b40a	0.00026264816
69	0x3e116afd	0.14200969
70	0x3df4e470	0.119576335
71	0xbd677c9e	-0.05651533
72	0xbc5961c4	-0.013267938
73	0xbd9f6eb4	-0.07784787
74	0xbdaf5ebd	-0.08562992
75	0xbd5f3cce	-0.054501347
76	0x3d80af33	0.062834166
77	0x3d540543	0.05176283
78	0xbd4ab7bc	-0.04949163
79	0xbd6ac2f4	-0.057314828
80	0x3d17bafd	0.03704356
81	0x3c4b0923	0.012392315
82	0x3def439f	0.116828196
83	0x3dc1175a	0.09428282
84	0x3d3b8478	0.04578063
85	0xbda6ca61	-0.081440695
86	0x3c72c3cc	0.014817189
87	0xbd5c399f	-0.05376589
88	0xbd181a02	-0.037134178
89	0xbd3874f8	-0.045033425
90	0xbd9351d4	-0.07193342
91	0xbdb4f6e4	-0.08836153
92	0x3cc0f16c	0.023552619
93	0x3ccc7ab9	0.024960862
94	0xbd0dac1a	-0.034587957
95	0xbc0bfa51	-0.008543567
96	0x3d5f9dfa	0.054594018
97	0x3d2a5f37	0.04159471
98	0x3d146acb	0.03623466
99	0xbcce2638	-0.025164708
100	0xbd7b4429	-0.0613443
101	0xbd1250e1	-0.035721663
102	0xbd315695	-0.04329546
103	0x3b1c3a0a	0.0023838305
104	0x3c8178fd	0.015804762
105	0x3d5a924c	0.053362176
106	0xbdbf6c1c	-0.09346792
107	0x3d239467	0.03993645
108	0x3ddfb425	0.10923032
109	0x3c09df4c	0.0084150545
110	0xbdaa10b6	-0.083039686
111	0x3c542239	0.012947612
112	0xbcaa702f	-0.020805446
113	0x3d38fa6e	0.045160703
114	0xbd873a25	-0.06602887
115	0xbc65d207	-0.014027125
116	0xbdfdf4fd	-0.124002434
117	0xbd0cde2d	-0.03439157
118	0xbcf2912f	-0.029610245
119	0x3c8dbbdc	0.017301492
120	0xbd8279b9	-0.06370873
121	0xbe0cd603	-0.13753514
122	0xbd9c232f	-0.07623898
123	0xbd82eb91	-0.06392587
124	0x3d48d5ce	0.049032025
125	0xbc9ee048	-0.019394055
126	0x3cb4386a	0.021999557
127	0xbe2d0910	-0.16897988
128	0x3d1e1a0d	0.038599063
129	0xbc394dfb	-0.011310096
130	0xbdb4bfa4	-0.08825615
131	0xbd33b700	-0.043875694
132	0xbd540216	-0.0517598
133	0xbcc1e46b	-0.023668488
134	0xbd4774cc	-0.04869537
135	0x3db0a43f	0.086250775
136	0x3cabe218	0.020981833
137	0xbb97cc7e	-0.0046325317
138	0xbda54ce5	-0.08071307
139	0xbd6ae8cd	-0.057350922
140	0x3ccfc163	0.025360769
141	0xbd895e75	-0.067074694
142	0xbe0576e0	-0.13033628
143	0xbd734230	-0.059389293
144	0x3dc96fe4	0.098357946
145	0x3d32c9f4	0.04364963
146	0xbda32a14	-0.0796701
147	0xbd28f533	-0.041249465
148	0xbd86d717	-0.06583994
149	0xbc78d704	-0.0151879825
150	0xbde76ba7	-0.1129983
151	0xbca3773d	-0.019954318
152	0xbb6096bd	-0.0034269535
153	0x3d974f97	0.073882274
154	0xbd82cc52	-0.06386627
155	0xbcc2cc00	-0.023778915
156	0x3dc29240	0.09500551
157	0xbd244b50	-0.040110886
158	0xbe1b4c40	-0.15165806
159	0xbbc4376c	-0.005988052
160	0xbdbadd6f	-0.09124266
161	0x3d4e6ac2	0.05039478
162	0xbd8d4536	-0.068979666
163	0xbd8ca3a4	-0.068671495
164	0x3cb04c30	0.021520704
165	0xbc654365	-0.013993119
166	0xbdb18ec2	-0.08669807
167	0xbd7ba878	-0.06143996
168	0xbdab302c	-0.083587974
169	0x3da03087	0.07821756
170	0x3dc1c34e	0.094610795
171	0xb9e1c3f8	-0.00043061352
172	0x3ce0535a	0.027383495
173	0xbd5ff5fd	-0.054677952
174	0xbda8a587	-0.08234697
175	0xbdbb0f4e	-0.091337785
176	0x3e003c7b	0.12523071
177	0x3d91b949	0.071154185
178	0x3d7f7b5b	0.0623735
179	0x3cd92d30	0.026510805
180	0x3ca636f5	0.020289877
181	0xbd0f1502	-0.034932144
182	0xbb97edc7	-0.0046364996
183	0x3d8df5f9	0.06931681
184	0xbe004f39	-0.12530221
185	0xbcf512ba	-0.029916156
186	0xbdc7cd04	-0.097559005
187	0x3d86b8b5	0.06578199
188	0x3d03d0ed	0.03218167
189	0xbb58a10c	-0.0033054976
190	0xbdf32a6e	-0.11873327
191	0xbdb93129	-0.0904258
192	0xbd3e6376	-0.046481572
193	0xba8d845b	-0.0010796891
194	0xbe05c25e	-0.13062426
195	0x3d8f8cf2	0.07009305
196	0x3cf0297e	0.02931666
197	0x3daf0f76	0.08547871
198	0x3d584d99	0.052808378
199	0xbd06da2b	-0.032922905
200	0xbe1d5242	-0.1536341
201	0xbcfb4561	-0.03067273
202	0xbd4b0c2b	-0.04957215
203	0xbd3c5d5f	-0.045987483
204	0x3d3119f9	0.04323766
205	0xbdad4ab3	-0.08461513
206	0xbda55181	-0.08072186
207	0xbc6e8019	-0.014556908
208	0xbcd043ed	-0.025423015
209	0x3db8c8df	0.09022688
210	0x3d1f3ad7	0.038874473
211	0xbcc1a109	-0.023636358
212	0x3d79cbc3	0.060985338
213	0xbe11df84	-0.1424542
214	0x3d8dfc33	0.06932869
215	0x3dba510d	0.090974905
216	0x3d00a492	0.031406946
217	0xbcc7f749	-0.024409907
218	0x3da3d712	0.08000006
219	0xbc551da9	-0.01300756
220	0x3d12ea19	0.035867784
221	0x3d9ec7ad	0.07752929
222	0x3c9c29cf	0.019062905
223	0xbdb99daa	-0.09063275
224	0x3bb76466	0.005596685
225	0xbd2ddef0	-0.042448938
226	0x3b5c1acd	0.003358531
227	0x3d08f7cd	0.033439446
228	0x3dc61204	0.09671405
229	0x3d31acd0	0.043377697
230	0xbc3a4ae7	-0.011370397
231	0xbc1b5bd9	-0.009482347
232	0xbc93ac07	-0.018026365
233	0x3caf067b	0.021365395
234	0x3db1ee94	0.08688083
235	0x3db2fa30	0.08739126
236	0x3c13a7bd	0.00901216
237	0x3d2fda2b	0.04293267
238	0x3e0cec43	0.13762002
239	0x3bc4fa68	0.006011296
240	0x3de4c1ed	0.11169801
241	0x3d96f51d	0.073709704
242	0xbd254bdb	-0.040355545
243	0xbda1baa9	-0.07896931
244	0xbd3b9fbf	-0.045806643
245	0x3d0d7a76	0.034540616
246	0x3d8edafc	0.06975362
247	0x3e1d2e5a	0.15349713
248	0x3d56ea69	0.052469645
249	0x3db09f21	0.086241014
250	0x3da3cc17	0.079979114
251	0xbda692ac	-0.08133444
252	0x3ce54298	0.027985856
253	0x3d55e876	0.052223645
254	0x3d3d8b8b	0.046275657
255	0xbd04090e	-0.032235198

lstm.bias_hh_l0 f4 [400]
0	0x3e1fcfff	0.15606688
1	0xbdae16c6	-0.085004374
2	0xbd1f15e1	-0.038839225
3	0x3d0e0a25	0.034677643
4	0x3c86b4bc	0.016443603
5	0xbd458ccd	-0.04822998
6	0x3ce193fd	0.027536387
7	0xbd8ff545	-0.07029203
8	0xbb34a68c	-0.002756509
9	0x3dbe0121	0.09277559
10	0x3bbfc23b	0.0058520115
11	0xbb051cd0	-0.0020311363
12	0x3c5aaed6	0.013347348
13	0xbdd7cec4	-0.10537484
14	0x3d48173f	0.048850294
15	0x3cfed410	0.031106979
16	0x3db40bd2	0.08791317
17	0xbc08926c	-0.008335691
18	0x3cc71f82	0.024307016
19	0xbdb39ba1	-0.08769918
20	0xbd89fdf3	-0.0673789
21	0x3d961623	0.07328441
22	0xbb35390b	-0.0027652408
23	0xbd388d2f	-0.04505652
24	0xbcfad664	-0.030619808
25	0x3d45aa3d	0.048258055
26	0x3d5467e4	0.05185689
27	0x3d7372df	0.05943572
28	0xbdd14730	-0.10218656
29	0xbd2756af	-0.040854152
30	0xbcbed3ed	-0.023294413
31	0x3cc47bc0	0.02398479
32	0xbda6e739	-0.08149571
33	0xbca0f219	-0.019646691
34	0xbd102997	-0.035195913
35	0xbdd7e225	-0.105411805
36	0xbdc158e0	-0.0944078
37	0xbd28cbee	-0.041210108
38	0x3bf0e08f	0.007350988
39	0x3c6fcb4f	0.014635875
40	0x3d527702	0.051383026
41	0x3bccf50d	0.0062547983
42	0xbd362e7d	-0.04447793
43	0x3d52fd04	0.051510826
44	0x3b944e63	0.004525946
45	0xbdf971fe	-0.121799454
46	0xbd868293	-0.06567874
47	0x3d159130	0.036515415
48	0xbd199bf5	-0.037502248
49	0xbdb821a7	-0.08990794
50	0xbd4a7f82	-0.049438007
51	0x3d2e49f5	0.042551
52	0x3d50e00c	0.050994918
53	0x3e4a22b2	0.19739798
54	0x3bc99842	0.0061521837
55	0xbd23e8ae	-0.040016823
56	0x3d1e8a97	0.03870639
57	0x3dac2da1	0.084071405
58	0x3cc884ec	0.024477445
59	0xbdfae035	-0.12249795
60	0x3d0c7137	0.034287658
61	0x3dec2a18	0.11531466
62	0x3dc18833	0.09449806
63	0x3ccfa1ff	0.0253458
64	0x3bf5ce91	0.0075014313
65	0xbe01db24	-0.12681252
66	0x3c6558f5	0.01399826
67	0x3d1b7166	0.037949942
68	0xbc33fd51	-0.010985688
69	0x3e07f30c	0.13276309
70	0x3de8ef30	0.113737464
71	0xbd7bd89d	-0.061485875
72	0x3d40d950	0.047082245
73	0xbdb9d6d8	-0.09074181
74	0xbde5800d	-0.112060644
75	0x3c227471	0.009915457
76	0xbc258fae	-0.010105057
77	0x3d629595	0.055318434
78	0xbd34d2fa	-0.044146515
79	0xbe285ae6	-0.16440925
80	0xbc3f4f3b	-0.011676605
81	0xbe04a72f	-0.129544
82	0x3d7b7152	0.061387368
83	0x3daee775	0.08540241
84	0x3b385c68	0.002813125
85	0xbd891c5a	-0.06694861
86	0xbd74d2d5	-0.059771378
87	0x3d3318c7	0.0437248
88	0xbdabc6d4	-0.08387533
89	0xbca53069	-0.020164685
90	0x3c30ddbd	0.010795054
91	0x3c2302b0	0.009949371
92	0x3c24cb15	0.010058184
93	0x3e010cc2	0.12602523
94	0xbda57cd6	-0.08080451
95	0xbd2d5cff	-0.042325016
96	0xbd405ba7	-0.046962406
97	0x3dbab6bd	0.09116886
98	0x3d0aa2b3	0.03384657
99	0x3c1c3c9d	0.009535936
100	0xbd19ef8f	-0.037581977
101	0xbde3c16e	-0.11120878
102	0x3c12d754	0.008962471
103	0xbdda4779	-0.106581636
104	0xbd79b01e	-0.060958974
105	0xbdd3dcc6	-0.103448436
106	0x3c7241b1	0.01478617
107	0xbdf2a2dc	-0.11847469
108	0x3d99068a	0.0747195
109	0xbdff3680	-0.12461567
110	0xba4ca49e	-0.00078065123
111	0xbe17f119	-0.14838065
112	0x3d1103fc	0.03540419
113	0x3d100f03	0.035170566
114	0xbd88f900	-0.06688118
115	0xbd7a82ef	-0.061160024
116	0xbe396b5f	-0.18107365
117	0xbc5ad9f0	-0.013357624
118	0xbe1598de	-0.14609095
119	0x3e0f7308	0.14008725
120	0x3d542b17	0.051798906
121	0xbd361fc0	-0.044463873
122	0xbd1fa204	-0.03897287
123	0xbe17065a	-0.14748517
124	0xbc1226a3	-0.0089203445
125	0x3d3b3bd7	0.045711365
126	0xbbc8a4a8	-0.006123144
127	0xbe4ae9bf	-0.1981573
128	0x3d46b5d1	0.048513237
129	0xb9596a3d	-0.0002073431
130	0x3d6089cf	0.054818925
131	0xbd587b34	-0.05285187
132	0x3d524101	0.051331524
133	0x3c3d861d	0.01156762
134	0x3d84f1e2	0.06491448
135	0x3d6ba14d	0.057526875
136	0x3cb40dcf	0.02197924
137	0x3d02576b	0.03182165
138	0xbe467f0e	-0.19384405
139	0xbcd91249	-0.026497977
140	0x3df9cac5	0.12196878
141	0x3d318f79	0.043349717
142	0x3d1b6156	0.037934624
143	0x3d908ea0	0.070584536
144	0xbd7ad2cb	-0.061236184
145	0xbd6a9077	-0.05726668
146	0xbcb48753	-0.022037184
147	0xbdeb216a	-0.114809826
148	0x3d1b7dca	0.03796176
149	0x3d6050dd	0.054764617
150	0xbda4521c	-0.080234736
151	0xbd16b5cf	-0.03679448
152	0xbd73b56a	-0.05949918
153	0x3da89564	0.08231619
154	0xbe2130b3	-0.15741234
155	0xbd6c2dd2	-0.057660885
156	0xbd32e1ab	-0.043672245
157	0xbde99619	-0.11405582
158	0xbe456b0f	-0.19279121
159	0xbd244ddf	-0.040113326
160	0xbe4ec0ab	-0.20190684
161	0x3dbb25b9	0.091380544
162	0xbde8e4a1	-0.113717325
163	0xbd9e5d9f	-0.077327006
164	0x3c825620	0.015910208
165	0xbda85957	-0.08220165
166	0x3cd32717	0.025775475
167	0xbd63fe8b	-0.055662673
168	0xbe29a795	-0.16567834
169	0xbd7babc6	-0.061443113
170	0x3d6a8e90	0.057264864
171	0x3be2ccca	0.0069213854
172	0xbc211084	-0.009830598
173	0x3d2374ec	0.039906427
174	0xbcb58b40	-0.022161126
175	0x3c7edc03	0.015555385
176	0x3d26dc89	0.040737662
177	0x3d354543	0.044255506
178	0x3d591cb9	0.053005908
179	0x3dd149e8	0.102191746
180	0xbd4bcc7e	-0.049755566
181	0xbd629904	-0.05532171
182	0xbd0966f9	-0.033545468
183	0x3d0ebbf1	0.034847204
184	0x3ab9cf60	0.0014176182
185	0x3d849dda	0.0647542
186	0xbbe768ee	-0.007062069
187	0xbdba36a1	-0.09092451
188	0xbc8d9355	-0.017282167
189	0x3d3b8987	0.045785453
190	0xbdf3850b	-0.1189061
191	0xbdacc201	-0.08435441
192	0x3dbb1c87	0.091363005
193	0x3c65752a	0.014004985
194	0xbc55389d	-0.013013986
195	0xbd9664ce	-0.07343446
196	0xbdb88a58	-0.09010762
197	0x3d22b205	0.039720554
198	0xbc6779ed	-0.01412819
199	0xbd66be25	-0.05633368
200	0xbd72ded7	-0.059294548
201	0x3c39b1ac	0.011333864
202	0x3de9280d	0.11384592
203	0xbd636313	-0.055514406
204	0x3db7654a	0.08954866
205	0xbd892052	-0.06695618
206	0x3d9a8635	0.07545129
207	0x3d3f898c	0.046762034
208	0x3ad9cd32	0.0016616939
209	0x3db4de6e	0.088314876
210	0x3cbcd040	0.02304852
211	0xbcca0dbc	-0.024664752
212	0xbc8f0ebe	-0.017463084
213	0xbddf710d	-0.109102346
214	0x3d182c36	0.037151538
215	0x3ddad727	0.10685568
216	0xbd1bb94d	-0.038018513
217	0x3d4c2cd7	0.04984745
218	0x3dbbd184	0.09170821
219	0xbd3b7066	-0.04576149
220	0xbd312648	-0.0432494
221	0x3dbabddd	0.09118245
222	0xbd535d3a	-0.05160258
223	0xbc8fea94	-0.01756791
224	0x3caf19ca	0.021374602
225	0xbd4037a6	-0.04692807
226	0x3cc07280	0.023492098
227	0x3d35c0a7	0.04437318
228	0xbd763318	-0.06010732
229	0x3c9af1dc	0.018914156
230	0x3dfba4e2	0.12287308
231	0x3d8da453	0.06916108
232	0xbd81ec6f	-0.06343924
233	0xbbf45464	-0.007456349
234	0x3c8eef3c	0.01744806
235	0x3c84a753	0.016193068
236	0x3d8e0efe	0.06936453
237	0xbd621808	-0.0551987
238	0x3d4bf659	0.049795482
239	0xbdaaf25c	-0.08347008
240	0x3d99a7e8	0.07502729
241	0x3caa3c1a	0.020780612
242	0x3c7daa0d	0.015482438
243	0xbd757c73	-0.059933137
244	0xbd2509d3	-0.040292572
245	0xbd5452c2	-0.051836737
246	0x3d28542f	0.04109591
247	0x3e04dcd5	0.12974866
248	0xbdad715d	-0.08468888
249	0xbdadc8d3	-0.0848557
250	0xbdb6cdcd	-0.08925972
251	0xbd17a12a	-0.037018932
252	0x3e0c2dee	0.13689396
253	0x3c992d2b	0.018698296
254	0xbc0c0a18	-0.008547328
255	0xbd53b85c	-0.05168949

hidden_to_y.weight f4 [1, 100]
0	0xbcf78b24	-0.030217715
1	0xbcdce48b	-0.026964447
2	0x3b7b3ba1	0.0038335102
3	0x3d7ba792	0.061439104
4	0xbb71289a	-0.0036797882
5	0x3c41337f	0.011792063
6	0x3b8e4a00	0.0043423176
7	0xbcad2a6b	-0.02113839
8	0xbb4885b4	-0.0030597271
9	0xbba3f309	-0.0050033373
10	0xbb571ffd	-0.0032825463
11	0x3ca027ac	0.019550167
12	0xbcf15899	-0.029461192
13	0xbc1f9648	-0.00974042
14	0x3ce488e3	0.027897304
15	0x3d3f0077	0.046631303
16	0x3daab438	0.08335155
17	0xba3c95c0	-0.00071939453
18	0x3c95c689	0.018283146
19	0x3c8b102d	0.016975487
20	0xbc449d02	-0.012000324
21	0xbcd7ce9b	-0.026343634
22	0x3c5aef56	0.013362726
23	0xbcc094e9	-0.023508506
24	0xbcb0d012	-0.02158359
25	0x3c02ed66	0.0079911705
26	0x3b2b6b90	0.0026156642
27	0x3cb3b8c0	0.021938682
28	0x3d309d6d	0.043118883
29	0x3bbe99f5	0.005816693
30	0xbb47c1e8	-0.0030480567
31	0xb96aaf58	-0.000223813
32	0x3c9556ff	0.01822996
33	0x3de96367	0.113959126
34	0xbd107ee3	-0.03527726
35	0x3a2b4e88	0.00065348344
36	0x3b805c43	0.0039172485
37	0x3c5f52c0	0.013630569
38	0x3abbc813	0.0014326595
39	0x3c8c1e1f	0.017104207
40	0xbc243fcc	-0.010024976
41	0xbbeba15e	-0.0071908673
42	0x3c43fc87	0.011962063
43	0xbb9e061d	-0.004822506
44	0x3b93b2a2	0.0045073787
45	0x3acb4eca	0.0015511152
46	0x3b0eb822	0.0021777232
47	0xba69d4d2	-0.00089199573
48	0x3b43c035	0.0029869203
49	0xbcb26167	-0.02177496
50	0x3ca4b439	0.020105468
51	0x3c182ba0	0.009287745
52	0xbcc7f041	-0.024406554
53	0xb9a701a2	-0.0003185394
54	0x3c6a2c34	0.014292765
55	0x3c9ea621	0.019366326
56	0xbb04b742	-0.0020250832
57	0x3d3f8f3d	0.046767462
58	0x3aef5f59	0.0018262669
59	0x3b11fae9	0.0022274798
60	0x3c834471	0.016023846
61	0x3c2eca79	0.01066839
62	0xbc065dc0	-0.008201063
63	0xb9c5e965	-0.0003774866
64	0xbb6dc6e9	-0.003628189
65	0xbb67ef67	-0.0035390498
66	0xbcf4ae01	-0.029868128
67	0xbd453665	-0.048147578
68	0xbbad1c44	-0.0052829105
69	0xbc5fb813	-0.013654727
70	0xbc10f8d9	-0.008848392
71	0xbb908c0c	-0.004411226
72	0x3c53fa76	0.0129381325
73	0x3b805b8c	0.0039171632
74	0x3b7c0264	0.0038453573
75	0xbb0c6381	-0.0021421614
76	0x3b7cd1ec	0.0038577272
77	0xb7f84e68	-2.9600415e-05
78	0xbd28c0b1	-0.04119939
79	0xbb305d7e	-0.0026911194
80	0xbd020d08	-0.03175071
81	0x3c20a2db	0.009804453
82	0x3c810def	0.015753714
83	0xbc7ccb14	-0.015429277
84	0xbc575c06	-0.013144499
85	0xbc7200d7	-0.014770708
86	0xbb62d71c	-0.0034613078
87	0x3d17fb5f	0.03710496
88	0xbb4d1737	-0.0031294355
89	0x3c77231c	0.015084054
90	0xbc45eea3	-0.012080821
91	0xbcbcfdf1	-0.023070307
92	0x3c691faa	0.014228741
93	0xbce323c9	-0.027727025
94	0x3cd92f76	0.026511889
95	0xbd1d5830	-0.03841418
96	0xba079cda	-0.0005173214
97	0xbca8f919	-0.020626592
98	0xbc60868f	-0.013703956
99	0xbb887e1f	-0.0041654254
